checkModel.pth (torch, 116357 bytes, 27 tensors)

cnn_layers.0.weight f4 [8, 3, 3, 3]
0.24182008 0.24268194 0.24358547 0.10082151 0.17248704 0.01988195 0.07826929 0.08773368
-0.041075908 0.14031452 0.049755685 0.084395096 0.1870919 0.30990815 -0.10257809 0.040544733
0.20908058 -0.23470642 0.13873449 0.3823096 0.13478754 -0.028849129 0.024991328 0.057281915
0.09720124 0.119456775 -0.073959716 0.03818261 0.15564701 0.11342653 0.120354936 0.17161204
0.31039783 -0.1958078 0.12656033 0.050061245 0.20281427 0.13326748 0.16682039 0.08679078
0.22778444 0.032996796 -0.084403135 -0.004882323 0.15707561 0.19661297 0.092937 -0.07804963
-0.019496225 0.065621145 0.14865409 -0.2904328 -0.027584996 0.15801853 0.059256863 0.084796935
0.06145583 -0.005229828 0.2864963 -0.029896421 -0.22258732 0.27369675 -0.11407673 -0.03664424
-0.22795416 0.12961413 -0.054187585 0.09137244 -0.26904464 -0.29469904 0.34509388 0.03463623
0.0484124 0.033544935 -0.09757707 0.044709 0.2396176 0.008563638 -0.19728786 0.35529855
-0.26163554 0.22672218 0.02432815 0.04019967 0.2892415 -0.20609365 -0.04038201 0.36542442
-0.06326844 0.068621844 -0.11002851 -0.13787459 0.14056595 0.2963658 0.018329035 -0.20047759
0.42599592 -0.25811636 -0.24358808 0.0642598 0.1363974 -0.22717793 -0.018421413 0.012148494
0.06985701 0.39167115 -0.15663269 -0.2605239 -0.18287015 0.2248062 0.25438207 0.27986225
-0.24432904 -0.20138991 -0.060618203 0.045834787 -0.21273516 0.12691562 0.27038732 -0.02698247
0.172562 -0.16962162 -0.06665303 -0.25258517 -0.20425707 -0.13298766 -0.047582418 -0.0011852006
0.13266358 0.092959456 0.04992857 -0.28367737 -0.21486104 0.014606737 -0.020138452 -0.099157356
-0.30237877 -0.034290254 0.028652592 -0.022228682 -0.0072644977 0.33371305 0.12775195 -0.09681761
-0.06467215 0.039961066 0.06949441 -0.0704316 -0.24462986 -0.2759672 0.17595273 0.26787072
-0.02732754 -0.15365846 -0.1292444 0.16667385 -0.043866538 -0.2575499 -0.22441217 0.14486408
0.06884759 0.0307968 -0.24655578 -0.0370124 -0.026749874 0.3662028 0.18191837 0.15863475
0.04643079 0.11407683 -0.21039166 -0.3271068 -0.11064474 0.13781355 0.33415094 0.14371525
0.16296753 0.050646737 0.15049253 -0.18788977 -0.13837746 -0.22734094 -0.17814551 0.33732226
-0.03952803 0.10131221 0.0575997 -0.06417245 0.035575416 -0.031781103 -0.18347546 -0.11460478
0.113460176 -0.25897372 0.17798366 -0.14331281 -0.025710357 0.071935266 -0.191417 -0.061266866
-0.040548876 -0.09510795 -0.1852501 0.08181193 -0.008356134 -0.11450549 0.22918755 -0.09338398
-0.10796939 -0.09308153 0.013647735 -0.34918356 0.24688202 -0.15695018 -0.1970291 0.25169104
00000000: af9f 773e 9d81 783e 786e 793e 827b ce3d
00000010: 71a0 303e 79df a23c a64b a03d b7ad b33d
00000020: 363f 28bd 9cae 0f3e 9ecc 4b3d 56d7 ac3d
00000030: 0595 3f3e 48ac 9e3e 7614 d2bd 3c12 263d
00000040: 3819 563e e156 70be 6a10 0e3e 15be c33e
00000050: bf05 0a3e 0255 ecbc 9dba cc3c 71a0 6a3d
00000060: 7211 c73d c1a5 f43d 3178 97bd 5e65 1c3d
00000070: ee61 1f3e 2b4c e83d a67c f63d 11bb 2f3e
00000080: 77ec 9e3e d781 48be 0899 013e 050d 4d3d
00000090: 8bae 4f3e 4577 083e f7d2 2a3e 5dbf b13d
000000a0: 5340 693e a627 073d 8ddb acbd e5fb 9fbb
000000b0: 6ed8 203e e954 493e c155 be3d 7cd8 9fbd
000000c0: 8cb6 9fbc 6164 863d c738 183e 9cb3 94be
000000d0: eef9 e1bc 9ccf 213e 53b7 723d 04aa ad3d
000000e0: 1cb9 7b3d fa5e abbb a5af 923e 57e9 f4bc
000000f0: eeed 63be fb21 8c3e 10a1 e9bd 4518 16bd
00000100: d16c 69be 91b9 043e cdf3 5dbd 7921 bb3d
00000110: 38c0 89be cbe2 96be 25b0 b03e b8de 0d3d
00000120: 154c 463d 6a66 093d 7dd6 c7bd c920 373d
00000130: 515e 753e 804e 0c3c d405 4abe b1e9 b53e
00000140: 18f5 85be dc29 683e d44b c73c 69a8 243d
00000150: 7617 943e 370a 53be 9b67 25bd e918 bb3e
00000160: e292 81bd 9c89 8c3d a156 e1bd ff2e 0dbe
00000170: 85f0 0f3e 42bd 973e c626 963c ff49 4dbe
00000180: 231c da3e d427 84be 276f 79be a49a 833d
00000190: c3ab 0b3e 55a1 68be 81e8 96bc 7a0a 473c
000001a0: 3111 8f3d 1f89 c83e 5264 20be 6363 85be
000001b0: 5042 3bbe 9933 663e 5e3e 823e 1b4a 8f3e
000001c0: 6431 7abe 2839 4ebe cb4a 78bd 42bd 3b3d
000001d0: 3fd7 59be 2bf6 013e 3570 8a3e 570a ddbc
000001e0: 18b4 303e 4ab1 2dbe 6281 88bd d852 81be
000001f0: c428 51be eb2d 08be c8e5 42bd bc58 9bba
00000200: f6d8 073e 8761 be3d e681 4c3d 293e 91be
00000210: 8804 5cbe 1851 6f3c 65f9 a4bc 0313 cbbd
00000220: 64d1 9abe f073 0cbd d7b8 ea3c ed18 b6bc
00000230: 060b eebb 70dc aa3e 68d1 023e 5048 c6bd
00000240: d572 84bd 37ae 233d 1653 8e3d 713e 90bd
00000250: 4080 7abe 934b 8dbe f42c 343e 5a26 893e
00000260: 01de dfbc a558 1dbe a558 04be 8dac 2a3e
00000270: 66ad 33bd 95dd 83be 4ecc 65be 4057 143e
00000280: f7ff 8c3d 9249 fc3c 1e79 7cbe 509a 17bd
00000290: 8d22 dbbc ef7e bb3e cf48 3a3e 2671 223e
000002a0: 362e 3e3d 1da1 e93d e970 57be 8b7a a7be
000002b0: b699 e2bd ff1e 0d3e d515 ab3e 172a 133e
000002c0: f6e0 263e f472 4f3d b71a 1a3e 2d66 40be
000002d0: d2b2 0dbe 10cc 68be c76b 36be 81b5 ac3e
000002e0: 25e8 21bd c77c cf3d aaed 6b3d d86c 83bd
000002f0: 87b7 113d e72c 02bd fee0 3bbe e9b5 eabd
00000300: cf5d e83d 3498 84be 5941 363e 98c0 12be
00000310: 879e d2bc cc52 933d d102 44be f7f2 7abd
00000320: 9416 26bd f5c7 c2bd 34b2 3dbe 038d a73d
00000330: 2be8 08bc db81 eabd 24b0 6a3e 1a40 bfbd
00000340: 0e1f ddbd 87a1 bebd c09a 5f3c 30c8 b2be
00000350: a4ce 7c3e 8cb7 20be ffc1 49be a6dd 803e

cnn_layers.1.weight f4 [8]
0.97772133 1.0730994 1.020854 1.086365 0.8469554 1.0401509 0.86406183 1.1028105
00000000: f24b 7a3f 525b 893f 58ab 823f 020e 8b3f
00000010: 12d2 583f aa23 853f 2833 5d3f e528 8d3f

cnn_layers.1.bias f4 [8]
-0.3051028 -0.09452998 -0.054299895 -0.15541308 -0.028941102 -0.018683767 -0.011906207 -0.017263504
00000000: 6f36 9cbe ef98 c1bd 9169 5ebd 9b24 1fbe
00000010: e415 edbc b30e 99bc 4012 43bc 316c 8dbc

cnn_layers.1.running_mean f4 [8]
-0.37098348 -0.29272017 -0.047190614 -0.083637066 0.08517674 0.094182275 -0.09668604 0.17907713
00000000: 8cf1 bdbe 6bdf 95be f24a 41bd e949 abbd
00000010: 2571 ae3d a3e2 c03d 5503 c6bd ff5f 373e

cnn_layers.1.running_var f4 [8]
1.1006018 0.7025366 0.046491563 0.14911015 0.103872746 0.12214561 0.12554628 0.2987377
00000000: 85e0 8c3f 70d9 333f f06d 3e3d 55b0 183e
00000010: 3cbb d43d 7a27 fa3d 348f 003e 26f4 983e

cnn_layers.4.weight f4 [16, 8, 3, 3]
-0.08449381 0.026149653 -0.072725095 0.15765426 0.103411 -0.21714823 0.05689542 -0.2715675
-0.2502508 0.114043765 0.00077357946 -0.04034597 0.2588356 -0.037340492 -0.10081716 -0.05266603
-0.004096062 -0.15730478 0.0723002 0.05423122 -0.06751542 0.080103695 0.21764207 -0.017695712
-0.023855116 -0.3163646 -0.18201162 -0.016470997 0.093429394 0.17015903 -0.10997935 0.1957402
0.07015264 -0.04435091 -0.39888224 -0.16316736 -0.1252145 0.15281132 -0.004606066 0.26479098
-0.03052591 -0.22957027 0.07086156 0.015672056 -0.24667716 0.072936624 0.055376474 -0.1880937
0.19265677 0.1128557 -0.059547048 0.22140351 0.039255615 -0.04615614 -0.0010268891 0.09045064
-0.16292202 0.022376476 0.084817946 -0.128566 -0.08949791 -0.21159598 -0.07721717 -0.10839427
0.22236893 0.0062767523 0.111446336 0.26840365 -0.104803845 0.16135073 -0.031408776 -0.2205978
-0.05695976 0.08655412 0.24302416 -0.12800306 -0.13477284 0.1438205 -0.092928864 0.071398936
0.02184044 0.028788278 0.14719841 0.2560121 0.009311894 0.18853664 0.12109862 -0.13475704
0.07291217 0.15781422 -0.14288428 -0.057961725 0.26941648 -0.26613677 0.0033857205 0.2201832
0.012475664 -0.10526922 0.011624511 -0.16307694 0.06859835 0.16250606 -0.4425138 -0.14691974
-0.14404386 -0.21461849 -0.062062204 -0.063788496 -0.077388875 -0.04163549 -0.17190997 -0.098017424
0.013579987 0.087086126 -0.05624465 -0.29803538 -0.12917562 -0.011106382 0.04454701 -0.13217042
0.08588726 0.1171638 0.09112894 0.11502871 0.06615373 0.07691091 -0.31407842 -0.22731084
0.04869996 -0.2840405 -0.1322151 0.002447268 -0.27139696 -0.25835174 -0.199067 0.016513856
0.14859508 0.042382374 -0.09922027 -0.0060395338 0.0548658 -0.120241806 -0.15444307 -0.15237682
0.1997818 -0.11592508 -0.10587401 -0.12216145 -0.20534231 -0.18374005 0.038713254 0.15145953
0.08580612 -0.08788533 -0.088083446 0.30857885 -0.04294975 -0.090862155 -0.11657325 -0.0557233
0.1619248 0.15162112 -0.057699606 -0.25696743 -0.06489943 -0.19448276 -0.0909061 -0.007062817
-0.058052696 0.05394359 -0.000106797524 0.29803097 -0.16830611 -0.3375921 0.024130898 -0.25856078
-0.06403648 -0.19769175 0.07671074 0.16534525 0.22642972 -0.022484453 -0.14426245 -0.25684568
-0.0047089714 -0.20589483 -0.029373266 0.09516336 0.055553313 0.012613835 0.22293153 0.049862344
-0.019547438 -0.058742683 -0.07241512 -0.08212751 0.15487719 0.21664423 0.004675878 0.013347707
-0.06281012 -0.12401337 -0.05053181 0.14534841 0.021428894 0.19733019 0.23736006 -0.05113831
-0.2021286 -0.048403416 0.0040775593 -0.18129982 -0.15563817 0.21058923 0.05057626 -0.09202154
-0.16921927 -0.032374583 0.073073454 -0.23081027 0.04211151 0.06729667 -0.08469532 0.048097074
-0.037244443 -0.3660657 0.039674275 0.008935495 -0.25276935 -0.16428822 0.112077035 -0.21133207
0.1006035 -0.054749154 -0.28121436 -0.03384423 -0.018796748 -0.2738926 0.17577532 -0.28923208
-0.13663629 0.0050275656 -0.011243073 -0.15358919 -0.06911523 0.07486513 0.0075406986 -0.1675697
-0.08827375 -0.16307561 -0.06340509 0.33696154 -0.25456795 -0.020626104 0.060880598 0.023645721
00000000: 170b adbd cc37 d63c e5f0 94bd 1e70 213e
00000010: 25c9 d33d 1b5c 5ebe 2c0b 693d e50a 8bbe
00000020: df20 80be c78f e93d 0aca 4a3a d141 25bd
00000030: 1a86 843e 58f2 18bd 3a79 cebd 56b8 57bd
00000040: 4238 86bb 8114 21be 2112 943d 8e21 5e3d
00000050: 8645 8abd 680d a43d 90dd 5e3e 99f6 90bc
00000060: ce6b c3bc 8afa a1be 4161 3abe 2fee 86bc
00000070: e957 bf3d 2b3e 2e3e da3c e1bd 1e70 483e
00000080: 30ac 8f3d 4da9 35bd 4b3a ccbe 5815 27be
00000090: 3b38 00be 927a 1c3e 7bee 96bb af92 873e
000000a0: 7911 fabc 7814 6bbe de1f 913d af62 803c
000000b0: f098 7cbe cc5f 953d 71d2 623d a39b 40be
000000c0: d147 453e e420 e73d 9be7 73bd 9ab7 623e
000000d0: 7fca 203d 380e 3dbd ae98 86ba 2f3e b93d
000000e0: 08d5 26be df4e b73c 08b5 ad3d cea6 03be
000000f0: ae4a b7bd 9eac 58be 0924 9ebd d1fd ddbd
00000100: aeb4 633e 37ad cd3b fa3d e43d 346c 893e
00000110: 66a3 d6bd 2039 253e 7da6 00bd 64e4 61be
00000120: a34e 69bd 4943 b13d 53db 783e 3c13 03be
00000130: e401 0abe ae45 133e 7d51 bebd 9b39 923d
00000140: b9ea b23c 65d5 eb3c 2ebb 163e 0514 833e
00000150: ea90 183c c00f 413e 8e02 f83d c0fd 09be
00000160: fa52 953d 0d9a 213e 4250 12be 4669 6dbd
00000170: f5f0 893e 1443 88be f7e2 5d3b b477 613e
00000180: ba66 4c3c 6497 d7bd bc74 3e3c a4fd 26be
00000190: 4b7d 8c3d fd67 263e 2b91 e2be 2172 16be
000001a0: 3c80 13be f3c4 5bbe f034 7ebd 8ba3 82bd
000001b0: 0f7e 9ebd fa89 2abd 2b09 30be 5cbd c8bd
000001c0: 987e 5e3c 365a b23d ca60 66bd 1898 98be
000001d0: 9d46 04be 8bf7 35bc ed76 363d af57 07be
000001e0: a9e5 af3d 93f3 ef3d cfa1 ba3d 2c94 eb3d
000001f0: 9b7b 873d 7883 9d3d e3ce a0be 2cc4 68be
00000200: 9c79 473d c26d 91be 6563 07be 5862 203b
00000210: 8bf4 8abe ae46 84be 38d8 4bbe 1148 873c
00000220: 4f29 183e 2499 2d3d ff33 cbbd 48e7 c5bb
00000230: f6ba 603d 5641 f6bd 5326 1ebe ab08 1cbe
00000240: 9a93 4c3e 216a edbd 79d4 d8bd c82f fabd
00000250: 4145 52be 5a26 3cbe ca91 1e3d 3518 1b3e
00000260: 1ebb af3d 39fd b3bd 1865 b4bd 0cfe 9d3e
00000270: 14ec 2fbd f015 babd f5bd eebd 1d3e 64bd
00000280: 9dcf 253e 9142 1b3e 6c56 6cbd 3c91 83be
00000290: fee9 84bd 7d26 47be fa2c babd 346f e7bb
000002a0: aac8 6dbd f4f3 5c3d 7cf8 dfb8 8497 983e
000002b0: 7058 2cbe dfd8 acbe 29ae c53c 1462 84be
000002c0: 8f25 83bd b56f 4abe 851a 9d3d 4450 293e
000002d0: 31dd 673e 5131 b8bc 89b9 13be 4781 83be
000002e0: b74d 9abb 18d6 52be 34a0 f0bc 02e5 c23d
000002f0: df8b 633d 42aa 4e3c 2a48 643e 753c 4c3d
00000300: f321 a0bc 2b9c 70bd 614e 94bd 7832 a8bd
00000310: 2098 1e3e fcd7 5d3e 1c38 993b 57b0 5a3c
00000320: 98a2 80bd b9fa fdbd 71fa 4ebd 37d6 143e
00000330: a68b af3c ed10 4a3e 840e 733e 6876 51bd
00000340: cdfa 4ebe a942 46bd 0c9d 853b a9a6 39be
00000350: 9d5f 1fbe b4a4 573e 0d29 4f3d ca75 bcbd
00000360: d147 2dbe 369b 04bd 89a7 953d 8759 6cbe
00000370: 1e7d 2c3d d6d2 893d bd74 adbd 7001 453d
00000380: a18d 18bd f76c bbbe 7e81 223d 2f66 123c
00000390: fc6a 81be 2c3b 28be a588 e53d 6f67 58be
000003a0: 3509 ce3d a640 60bd 54fb 8fbe 3fa0 0abd
000003b0: a3fb 99bc a73b 8cbe 72fe 333e 3a16 94be
000003c0: 62ea 0bbe 47be a43b de34 38bc 7c46 1dbe
000003d0: 498c 8dbd e452 993d f717 f73b 6497 2bbe
000003e0: dec8 b4bd 4bfd 26be 87da 81bd 3986 ac3e
000003f0: bb56 82be 13f8 a8bc ef5d 793d acb4 c13c

cnn_layers.5.weight f4 [16]
1.0532215 1.1553471 1.1097773 1.1102985 0.95547515 1.2020284 0.97059125 0.99075705
0.8968663 0.9077678 0.87441313 1.0484943 1.0046371 0.9616383 0.8348806 0.86044645
00000000: f6cf 863f 6ae2 933f 2f0d 8e3f 431e 8e3f
00000010: 059a 743f 11dc 993f ab78 783f 41a2 7d3f
00000020: 0899 653f 7863 683f 8ad9 5f3f 1035 863f
00000030: f397 803f ed2d 763f bcba 553f 3846 5c3f

cnn_layers.5.bias f4 [16]
-0.32064712 0.04727921 -0.108651094 -0.16061933 -0.33231425 -0.1928709 -0.16201814 -0.4248041
0.104900405 -0.33708438 -0.34154853 -0.20473532 -0.13157946 -0.06932532 0.07478396 -0.007926585
00000000: dc2b a4be d8a7 413d 7784 debd 6579 24be
00000010: 1825 aabe f37f 45be 15e8 25be ec7f d9be
00000020: 06d6 d63d 5396 acbe 73df aebe 23a6 51be
00000030: c4bc 06be 6ffa 8dbd 5528 993d 82de 01bc

cnn_layers.5.running_mean f4 [16]
-0.29159302 -1.0879023 -0.6330709 -1.8498416 0.812679 -0.6751976 -1.9926803 -0.5462303
-0.14675063 1.8831525 1.7559329 -1.2604355 -0.20089586 -0.19867669 -0.76406795 0.46198767
00000000: ae4b 95be 6240 8bbf ef10 22bf 9cc7 ecbf
00000010: bb0b 503f c0d9 2cbf 2610 ffbf c0d5 0bbf
00000020: cc45 16be 240b f13f 69c2 e03f f355 a1bf
00000030: a5b7 4dbe e771 4bbe f599 43bf a689 ec3e

cnn_layers.5.running_var f4 [16]
1.2351516 1.7757251 0.77905095 2.2177093 2.2228808 1.1290733 3.0363731 2.835008
0.41561165 3.0174973 1.2266202 1.5628744 0.89953 1.1201496 0.6806042 0.98865473
00000000: 7319 9e3f f64a e33f e26f 473f f3ee 0d40
00000010: ae43 0e40 7985 903f f053 4240 c570 3540
00000020: 0dcb d43e ad1e 4140 e401 9d3f 450c c83f
00000030: 9947 663f 1061 8f3f 143c 2e3f 7a18 7d3f

cnn_layers.8.weight f4 [32, 16, 3, 3]
-0.01197224 0.030406082 -0.021800615 0.022016011 -0.0049534016 -0.06488633 0.07200337 0.21796459
0.19854099 -0.087753505 0.21438156 0.27616027 -0.0070712185 0.0086987605 0.16662866 0.05793997
0.08711398 -0.085780725 0.12419039 0.11584417 0.10382977 0.17041965 0.143289 -0.08285973
-0.13379551 -0.17259337 -0.15465808 -0.014625933 -0.005099439 -0.18315111 0.047284026 -0.09036473
0.045814954 -0.0593718 -0.07962784 -0.03723462 -0.008084646 -0.22332618 -0.039159097 0.018556777
-0.21444303 -0.24722932 0.072639555 -0.08088174 0.14309983 -0.33406743 0.025039472 -0.034246676
0.018104367 0.07120968 0.09127442 -0.09171284 -0.100717984 0.07193423 0.052129187 -0.11431757
0.0048386115 -0.45026326 -0.22325678 -0.029073687 0.005951999 -0.09659741 -0.16269098 0.05593433
-0.090647906 -0.048278097 0.038450226 0.146059 -0.016319074 0.056796838 0.16819997 0.19958672
-0.1545786 -0.014974856 0.14193194 -0.23694079 0.11156324 -0.035466608 -0.20052256 0.096538834
-0.11408223 -0.24495852 -0.22547252 -0.36076263 -0.17171583 -0.117595606 -0.06786527 0.05665804
0.023712268 -0.036766138 0.03881944 -0.1800362 0.018639874 0.11261837 0.10378504 0.05509141
-0.075396314 -0.08609668 0.011022452 -0.107440166 -0.028821528 -0.07908233 -0.07048767 -0.09280634
-0.14987502 -0.11129696 -0.11384875 0.18026868 -0.28567776 0.044819523 0.0005456856 0.105178416
0.17268954 0.19007336 -0.109385304 -0.06356869 0.010694785 0.3428786 0.053762592 0.036120113
0.22277813 0.08875529 -0.11677459 0.055055086 -0.09630051 -0.13827555 -0.022870757 0.27320126
-0.09824742 -0.053998835 0.02057449 -0.12616721 -0.085378736 -0.032091696 -0.079288706 0.07513639
-0.21659133 0.00089219725 -0.004107471 -0.17381354 -0.21436135 0.034860868 0.052062165 0.21794388
-0.027562812 0.1557024 -0.04212231 0.08024197 0.15387248 0.004888126 0.26979262 0.07914588
0.1378018 -0.1628015 -0.08096181 0.018991102 0.0059700035 -0.17802022 -0.0840329 0.15133132
0.13346031 0.16289656 -0.13687575 -0.3133072 -0.16459197 -0.11201785 0.14090462 0.14868501
-0.004827373 -0.034440607 -0.12863323 0.086953275 -0.16179477 0.0688586 0.039868794 -0.24567895
0.06264428 0.01627008 -0.015941689 -0.20401 -0.16990592 -0.07495542 -0.07290869 0.050002094
-0.020725101 -0.1476396 0.11120697 -0.13403742 -0.03818924 0.33070266 0.1997871 -0.04473226
-0.04227235 0.048647415 -0.049392227 -0.06676575 0.11678049 0.23959701 0.18761364 -0.18595482
0.102188975 0.023236517 0.16219664 0.10165219 -0.19379812 0.049784347 -0.047362406 0.027557455
-0.08281879 -0.12205661 0.07092755 -0.063780196 -0.004730005 0.24834636 -0.17994417 -0.015160285
0.1445954 0.026805017 -0.23025428 0.11448336 0.067033164 -0.024270587 -0.13314211 0.05149576
0.2957143 -0.08673998 0.05162854 -0.2262711 -0.06225052 -0.13619785 -0.11379951 0.027903678
-0.053226825 -0.19077766 0.093364805 -0.013800905 0.046646778 0.041732226 0.044161834 0.005703609
0.06998299 -0.15267748 -0.04036257 0.317913 -0.08182937 -0.049875643 0.099764146 -0.0040819296
0.15987976 -0.13770261 -0.29034638 -0.0034845811 -0.019509785 -0.06909637 -0.19181775 -0.20024428
00000000: 3727 44bc 2d16 f93c 3497 b2bc ec5a b43c
00000010: 2550 a2bb 20e3 84bd 8176 933d 1c32 5f3e
00000020: 544e 4b3e 1cb8 b3bd d786 5b3e e164 8d3e
00000030: aeb5 e7bb 3f85 0e3c b4a0 2a3e 7652 6d3d
00000040: d068 b23d cead afbd 8857 fe3d b53f ed3d
00000050: b4a4 d43d 7d82 2e3e 5aba 123e 5db2 a9bd
00000060: b101 09be 51bc 30be b05e 1ebe 9ca1 6fbc
00000070: 3219 a7bb f78b 3bbe e5ac 413d 2511 b9bd
00000080: 76a8 3b3d d82f 73bd ec13 a3bd 5483 18bd
00000090: 7775 04bc 9eaf 64be 4a65 20bd 6204 983c
000000a0: f496 5bbe af29 7dbe 0cc4 943d 53a5 a5bd
000000b0: c388 123e e30a abbe 941f cd3c 3e46 0cbd
000000c0: 9c4f 943c 61d6 913d 15ee ba3d f1d3 bbbd
000000d0: 3b45 cebd 4152 933d 6a85 553d 551f eabd
000000e0: 378d 9e3b e888 e6be 6d9d 64be f12b eebc
000000f0: fd08 c33b ddd4 c5bd 7798 26be 651b 653d
00000100: 9ca5 b9bd 41bf 45bd fc7d 1d3d 7e90 153e
00000110: 94af 85bc cda3 683d 9d3c 2c3e 7660 4c3e
00000120: da49 1ebe 1959 75bc 9b56 113e 9ba0 72be
00000130: 457b e43d 6f45 11bd c955 4dbe 27b6 c53d
00000140: f2a3 e9bd 68d6 7abe 45e2 66be e1b5 b8be
00000150: 46d6 2fbe f7d5 f0bd f2fc 8abd 4312 683d
00000160: 3b40 c23c 1798 16bd 2201 1f3d 695b 38be
00000170: a6b2 983c 76a4 e63d 408d d43d 88a7 613d
00000180: 6269 9abd 7553 b0bd 8497 343c 9709 dcbd
00000190: 201b ecbc ebf5 a1bd d75b 90bd 4011 bebd
000001a0: d678 19be a9ef e3bd 8929 e9bd 5a98 383e
000001b0: 5b44 92be ad94 373d 570c 0f3a c867 d73d
000001c0: 87d5 303e 97a2 423e 6705 e0bd 4d30 82bd
000001d0: 2e39 2f3c c98d af3e 2a36 5c3d aff2 133d
000001e0: f31f 643e 55c5 b53d 8427 efbd 7181 613d
000001f0: 3439 c5bd 1b98 0dbe 745b bbbc 09e1 8b3e
00000200: f135 c9bd e22d 5dbd d58b a83c fa31 01be
00000210: 0cdb aebd 9572 03bd 1e62 a2bd 1ce1 993d
00000220: 1eca 5dbe 58e2 693a f797 86bb 2dfc 31be
00000230: 8b81 5bbe 45ca 0e3d 233f 553d ae2c 5f3e
00000240: 68cb e1bc 7370 1f3e 7188 2cbd e755 a43d
00000250: bf90 1d3e 932c a03b 4222 8a3e 3c17 a23d
00000260: ea1b 0d3e 70b5 26be 4ecf a5bd 3a93 9b3c
00000270: 05a0 c33b ef4a 36be 7119 acbd 99f6 1a3e
00000280: d2a9 083e 5bce 263e 2829 0cbe cd69 a0be
00000290: cc8a 28be 9d69 e5bd 4d49 103e e240 183e
000002a0: f12e 9ebb 9811 0dbd 6eb8 03be 8f14 b23d
000002b0: 87ad 25be bd05 8d3d 764d 233d 4393 7bbe
000002c0: a54b 803d d548 853c 2598 82bc ffe7 50be
000002d0: d1fb 2dbe 3a82 99bd 2751 95bd ffce 4c3d
000002e0: b0c7 a9bc d62e 17be 7bc0 e33d 1b41 09be
000002f0: 526c 1cbd dc51 a93e fd94 4c3e 2d39 37bd
00000300: c625 2dbd 8342 473d 814f 4abd 7bbc 88bd
00000310: 9c2a ef3d eb58 753e ca1d 403e f16a 3ebe
00000320: 7448 d13d 825a be3c e016 263e 062f d03d
00000330: 0473 46be acea 4b3d 15ff 41bd 2cc0 e13c
00000340: e69c a9bd d1f8 f9bd 7742 913d 319f 82bd
00000350: 28fe 9abb 824e 7e3e 4943 38be d862 78bc
00000360: d110 143e 3296 db3c c7c7 6bbe 4076 ea3d
00000370: af48 893d 1cd3 c6bc 6856 08be 38ed 523d
00000380: dd67 973e bba4 b1bd 7378 533d 9cb3 67be
00000390: 67fa 7ebd 7377 0bbe b80f e9bd 4196 e43c
000003a0: 5f04 5abd 385b 43be 0c36 bf3d 311d 62bc
000003b0: b110 3f3d 69ef 2a3d 0ae3 343d 57e5 ba3b
000003c0: 3e53 8f3d 7c57 1cbe 3953 25bd 7ec5 a23e
000003d0: 2896 a7bd 674a 4cbd 2551 cc3d b5c1 85bb
000003e0: 85b7 233e ea01 0dbe 48a8 94be 925d 64bb
000003f0: fcd2 9fbc 6682 8dbd df6b 44be d60c 4dbe

cnn_layers.9.weight f4 [32]
1.1486641 0.9779354 1.0300952 0.9545459 0.972833 0.92980146 0.88906515 0.74592656
0.9544547 0.9981821 0.8368684 1.0590043 0.82871157 1.0957347 0.88484854 0.85299325
1.2253864 1.0891856 1.129387 0.9198919 1.072488 0.96911156 0.9777809 1.0612817
0.8109356 1.0589055 1.0765293 0.98306 0.85660195 0.8823119 0.9630445 0.96040386
00000000: 6d07 933f f959 7a3f 29da 833f 1f5d 743f
00000010: 950b 793f 7807 6e3f c699 633f 0bf5 3e3f
00000020: 2557 743f dd88 7f3f 023d 563f 748d 873f
00000030: 7126 543f 0941 8c3f 6f85 623f c45d 5a3f
00000040: 76d9 9c3f 6f6a 8b3f c18f 903f 097e 6b3f
00000050: 4947 893f b217 783f d94f 7a3f 14d8 873f
00000060: 7a99 4f3f 378a 873f b6cb 893f d2a9 7b3f
00000070: 444a 5b3f 31df 613f 168a 763f 07dd 753f

cnn_layers.9.bias f4 [32]
-0.5086749 -0.13067338 -0.3437535 -0.2893461 -0.5708753 -0.29529166 -0.40988255 -0.33085245
-0.38174844 -0.4224259 -0.4719782 -0.4850796 -0.30607128 -0.3784516 -0.26226997 -0.5611253
-0.2854293 -0.13417682 -0.26244426 -0.56593716 -0.13485308 -0.25154063 -0.40930536 -0.22412871
-0.28483143 -0.54876655 -0.38520226 -0.30825377 -0.22575733 -0.4354549 -0.40210098 -0.37547478
00000000: 8538 02bf 3ecf 05be 7500 b0be 2c25 94be
00000010: e224 12bf 7830 97be 20dc d1be 7e65 a9be
00000020: 8874 c3be 3548 d8be 20a7 f1be 5a5c f8be
00000030: 60b5 9cbe 68c4 c1be 4048 86be e8a5 0fbf
00000040: ca23 92be a665 09be 185f 86be 42e1 10bf
00000050: ed16 0abe efc9 80be 7990 d1be ff81 65be
00000060: 6dd5 91be f77b 0cbf 3b39 c5be 70d3 9dbe
00000070: ee2c 67be f2f3 debe 2ee0 cdbe 3b3e c0be

cnn_layers.9.running_mean f4 [32]
-1.0336273 -0.621608 -0.6568202 -1.7567699 -1.36232 -0.94635975 1.1085161 0.9548669
0.5712636 0.47601599 -0.59062743 -0.86373657 0.46157712 -0.24719375 -0.2860075 1.927388
-1.813485 -1.9474941 -1.3924234 -0.047200378 -2.2035336 -0.60574555 0.17770962 -0.87855685
0.24453928 -1.012355 -1.6547587 -0.35840607 -0.2831011 1.0779899 -0.8552783 -1.3051938
00000000: e64d 84bf b421 1fbf 5e25 28bf d6dd e0bf
00000010: 8060 aebf a244 72bf dbe3 8d3f 2872 743f
00000020: 553e 123f 5eb8 f33e 5c33 17bf d71d 5dbf
00000030: d653 ec3e 5c20 7dbe 936f 92be a6b4 f63f
00000040: 4720 e8bf 7d47 f9bf ee3a b2bf 2f55 41bd
00000050: b206 0dc0 2412 1bbf 83f9 353e 1ae9 60bf
00000060: 8168 7a3e d994 81bf 22cf d3bf 0081 b7be
00000070: a1f2 90be 93fb 893f 85f3 5abf 9710 a7bf

cnn_layers.9.running_var f4 [32]
1.777004 1.8399022 1.9380901 1.2771167 1.4034555 2.0493681 1.2811536 1.1430827
1.2730148 1.8128961 1.8444601 2.2313218 1.7973138 1.7711786 1.6580844 2.776062
2.4458222 2.150138 2.2859058 1.494601 2.4503288 1.4248148 2.098763 1.8676925
1.554172 2.1274 1.8872516 1.5388175 1.4181068 1.7764314 1.667192 1.3968741
00000000: de74 e33f ea81 eb3f 5613 f83f 8f78 a33f
00000010: 6ea4 b33f d928 0340 d7fc a33f 8950 923f
00000020: 26f2 a23f fb0c e83f 4517 ec3f facd 0e40
00000030: 610e e63f fbb5 e23f 1c3c d43f 00ab 3140
00000040: 5a88 1c40 dc9b 0940 484c 1240 164f bf3f
00000050: 30d2 1c40 5560 b63f 2252 0640 8c10 ef3f
00000060: 1cef c63f 5227 0840 7691 f13f f9f7 c43f
00000070: 8684 b53f 1b62 e33f 8c66 d53f c5cc b23f

cnn_layers.12.weight f4 [32, 32, 3, 3]
-0.030701088 0.04991282 -0.06448739 0.09324735 -0.07554477 -0.18629158 -0.07280813 -0.017562848
-0.06914037 0.020432457 0.15553081 0.14367527 -0.14337714 0.11564616 -0.3025448 -0.07401069
-0.11056995 0.059625484 -0.04505519 -0.12606971 -0.22921164 0.006606439 0.0488297 -0.35101417
0.007878769 -0.008799467 0.21009171 -0.062069356 -0.0618416 0.0006502306 0.052385855 0.15278625
-0.040170625 -0.10656866 0.18898818 0.036299128 -0.0069239545 0.1477805 0.057387654 0.032680497
-0.08113891 -0.10691264 -0.32900104 0.0938672 0.013205102 -0.28045636 -0.26730257 -0.20906113
-0.14254253 0.017817918 0.109766774 -0.07275248 -0.07814194 0.08148707 0.094442196 0.06924529
0.0772959 -0.08638203 -0.0032078535 0.0005203333 0.06348852 0.16540308 0.12634407 0.010661811
0.25526673 -0.00044880685 0.021729933 -0.017529551 0.13515891 -0.06534503 0.0010056979 -0.08113286
0.09159007 0.4091161 0.12787643 0.19556816 -0.028214205 -0.25450402 -0.10908338 -0.005101376
0.0050746035 -0.21379648 -0.19152153 0.064645685 -0.14182515 0.094908066 -0.031484265 0.053142037
0.117910504 0.13538106 -0.08656874 -0.0233305 -0.12810394 -0.080223836 -0.19984299 0.002780396
-0.023986045 0.07889541 0.02953772 -0.097929284 -0.19072482 -0.19722869 0.07179812 0.08000769
-0.0845576 -0.057430048 0.08920958 -0.10835678 0.09543468 -0.26129624 -0.17449148 0.049824186
-0.02372172 -0.16757521 -0.024333967 0.127711 -0.004869415 -0.052864674 0.057193104 0.0070295837
0.29934233 0.26463136 0.097197115 -0.13128346 0.09292275 -0.030121014 -0.093015894 -0.38159144
-0.057289757 -0.000642638 0.02252925 -0.048536807 0.071662314 0.055175602 0.17594853 -0.0101202885
-0.016371677 0.007018119 -0.124502465 -0.06720863 0.22799046 -0.08478833 0.14015849 0.0067025037
-0.10447565 0.056791745 0.13675284 0.029241983 -0.21121693 -0.09222816 -0.16567364 -0.23737195
-0.027798474 -0.13699727 0.05144105 -0.104616776 -0.094712496 0.2259704 0.043575153 -0.02307591
0.06823957 0.021924665 0.17804149 0.010524929 0.042642437 -0.054355167 -0.116012 0.093957804
0.13749011 -0.046800196 0.03833707 0.04279336 -0.14632721 -0.059500206 0.1595909 -0.13046879
0.07838622 -0.22929826 0.05908962 -0.00460039 0.11804769 0.17739652 -0.11697219 0.024626937
-0.054377507 -0.045117997 -0.00020519603 0.15194744 0.0041912356 -0.0907227 -0.09563341 0.030249152
-0.32884166 -0.1175458 -0.03511115 -0.07230244 0.012232104 -0.10874397 0.10333755 0.16601285
0.11415452 0.062951855 0.12238981 -0.20148537 -0.09702291 -0.19492625 -0.005587392 0.15031612
0.22585194 -0.105850175 0.09818325 0.11729637 -0.16883479 -0.29134494 -0.03664664 -0.052211236
0.16200878 -0.031151012 -0.17154846 0.11000731 -0.20627096 -0.13487145 0.0113173695 0.23182517
-0.24048455 -0.043904785 0.02664303 0.0668812 -0.1152285 -0.048919935 -0.04248741 -0.07907739
-0.17264804 0.037093353 -0.03572962 0.09560583 0.051950786 -0.039447427 0.10208311 0.16975072
-0.1624786 -0.16062503 0.024249466 -0.16756211 0.14319216 0.1875407 0.072553225 -0.26878628
0.09709916 0.2151958 0.019859774 0.056264263 -0.017489346 -0.044822276 -0.23393545 0.14931244
00000000: d980 fbbc 6371 4c3d f711 84bd 77f8 be3d
00000010: 37b7 9abd 38c3 3ebe 6e1c 95bd f6df 8fbc
00000020: 7799 8dbd f861 a73c 7843 1f3e 9c1f 133e
00000030: 75d1 12be e5d7 ec3d 27e7 9abe eb92 97bd
00000040: 7f72 e2bd da39 743d ca8b 38bd 6b18 01be
00000050: 75b6 6abe d47a d83b a701 483d 21b8 b3be
00000060: f415 013c a42b 10bc 4822 573e 703c 7ebd
00000070: 9e4d 7dbd 3d74 2a3a 8d92 563d 0074 1c3e
00000080: f489 24bd ab40 dabd 1e86 413e 65ae 143d
00000090: 57e2 e2bb c553 173e 510f 6b3d fcdb 053d
000000a0: 282c a6bd 04f5 dabd d372 a8be 723d c03d
000000b0: 365a 583c fa97 8fbe e2db 88be 1f14 56be
000000c0: abf6 11be e2f6 913c 67cd e03d 41ff 94bd
000000d0: e208 a0bd b1e2 a63d e96a c13d 79d0 8d3d
000000e0: 504d 9e3d 10e9 b0bd da3a 52bb fa66 083a
000000f0: 4506 823d 6d5f 293e 5760 013e e0ae 2e3c
00000100: 52b2 823e d64d ebb9 f902 b23c 229a 8fbc
00000110: 1967 0a3e 9dd3 85bd 9fd1 833a fc28 a6bd
00000120: 9393 bb3d aa77 d13e 0af2 023e 0543 483e
00000130: 7a21 e7bc 5a4e 82be 1b67 dfbd 7229 a7bb
00000140: dc48 a63b 77ed 5abe 381e 44be f564 843d
00000150: 9d3a 11be 295f c23d a5f5 00bd 77ab 593d
00000160: 107b f13d 55a1 0a3e f44a b1bd 9b1f bfbc
00000170: ae2d 03be 654c a4bd a4a3 4cbe 4e37 363b
00000180: 627e c4bc eb93 a13d 17f9 f13c 268f c8bd
00000190: 5e4d 43be 51f6 49be e50a 933d 12db a33d
000001a0: 892c adbd c53b 6bbd 83b3 b63d 29ea ddbd
000001b0: 4273 c33d 9fc8 85be e5ad 32be 7214 4c3d
000001c0: 0d54 c2bc d698 2bbe 0758 c7bc acc6 023e
000001d0: 9d8f 9fbb a188 58bd 5143 6a3d 6c58 e63b
000001e0: 6643 993e c37d 873e 480f c73d 2c6f 06be
000001f0: 484e be3d 58c0 f6bc 1e7f bebd f45f c3be
00000200: aaa8 6abd b576 28ba 438f b83c 88ce 46bd
00000210: b1c3 923d d0ff 613d da2b 343e 91cf 25bc
00000220: e51d 86bc 40f8 e53b 26fb febd aea4 89bd
00000230: 5576 693e 81a5 adbd b585 0f3e ada0 db3b
00000240: 54f7 d5bd 769e 683d f008 0c3e e28c ef3c
00000250: 4049 58be 1ee2 bcbd 5aa6 29be a211 73be
00000260: a0b9 e3bc 0349 0cbe dab3 523d 5241 d6bd
00000270: a0f8 c1bd c964 673e dc7b 323d b109 bdbc
00000280: 30c1 8b3d 5b9b b33c 8250 363e c070 2c3c
00000290: d6a9 2e3d 86a3 5ebd b397 edbd f36c c03d
000002a0: 35ca 0c3e 90b1 3fbd 5507 1d3d 1748 2f3d
000002b0: cdd6 15be 7db6 73bd cc6b 233e 9c99 05be
000002c0: f488 a03d 2acd 6abe f507 723d debe 96bb
000002d0: fdc2 f13d 6fa7 353e 1e8f efbd 6ebe c93c
000002e0: f3ba 5ebd a6cd 38bd e429 57b9 1c98 1b3e
000002f0: a256 893b d3cc b9bd 73db c3bd 12cd f73c
00000300: ef5d a8be dabb f0bd b6d0 0fbd 4d13 94bd
00000310: 2a69 483c 29b5 debd a3a2 d33d 46ff 293e
00000320: d8c9 e93d e7ec 803d 82a7 fa3d 2e52 4ebe
00000330: f3b3 c6bd bf9a 47be 7116 b7bb 78ec 193e
00000340: bb45 673e fac7 d8bd 4d14 c93d 1439 f03d
00000350: 07e3 2cbe 2a2b 95be ca1a 16bd 73db 55bd
00000360: a1e5 253e 6830 ffbc 66aa 2fbe 834b e13d
00000370: b238 53be be1b 0abe 7d6c 393c 9463 6d3e
00000380: 9541 76be 81d5 33bd 7c42 da3c 03f9 883d
00000390: ebfc ebbd 4560 48bd 4707 2ebd 54f3 a1bd
000003a0: a6ca 30be 33ef 173d 3959 12bd fdcc c33d
000003b0: 59ca 543d a093 21bd f310 d13d 22d3 2d3e
000003c0: ca60 26be e37a 24be d1a6 c63c 6795 2bbe
000003d0: f7a0 123e ab0a 403e c996 943d 5b9e 89be
000003e0: eddb c63d 4a5c 5c3e f7b0 a23c 5b75 663d
000003f0: d145 8fbc 9097 37bd c68c 6fbe 5ce5 183e

cnn_layers.13.weight f4 [32]
0.99767315 0.8457633 0.9235619 0.8541668 0.87762505 0.864411 0.8421201 1.0082518
0.9472085 0.87767 0.90243363 0.9544168 0.8582701 0.96726674 0.7434808 1.0247977
1.0184094 1.0087768 0.8168141 0.98382246 0.9497006 0.9279847 1.0747238 1.0052857
1.0386449 0.9164802 0.90023226 0.9574364 0.9016278 1.0474622 0.8069993 0.9388829
00000000: 8267 7f3f f283 583f 8d6e 6c3f adaa 5a3f
00000010: 09ac 603f 0a4a 5d3f 2f95 573f 650e 813f
00000020: 427c 723f fbae 603f e405 673f a954 743f
00000030: 97b7 5b3f cb9e 773f c254 3e3f 922c 833f
00000040: 3d5b 823f 991f 813f bb1a 513f cadb 7b3f
00000050: 941f 733f 6890 6d3f 8d90 893f 34ad 803f
00000060: 51f2 843f 729e 6a3f 9f75 663f 8d1a 753f
00000070: 14d1 663f 3e13 863f 8297 4e3f a15a 703f

cnn_layers.13.bias f4 [32]
-0.6230554 -0.5957483 -0.5493799 -0.62669814 -0.5949234 -0.45722908 -0.3441013 -0.5046689
-0.4981246 -0.6444442 -0.7303452 -0.4926592 -0.5872501 -0.6257127 -0.48258564 -0.70740986
-0.627089 -0.42427438 -0.32715514 -0.477461 -0.6443108 -0.3079489 -0.36243966 -0.5397633
-0.42254218 -0.43823537 -0.5000209 -0.34904087 -0.31816208 -0.64011484 -0.48518968 -0.5957484
00000000: 8f80 1fbf f682 18bf 29a4 0cbf 4a6f 20bf
00000010: e64c 18bf ee19 eabe 0c2e b0be fb31 01bf
00000020: 300a ffbe 4cfa 24bf e7f7 3abf d43d fcbe
00000030: 0656 16bf b52e 20bf 7715 f7be d018 35bf
00000040: e888 20bf 7e3a d9be e180 a7be c575 f4be
00000050: 8df1 24bf 7aab 9dbe b191 b9be ed2d 0abf
00000060: 7357 d8be 6360 e0be 5f01 00bf 7cb5 b2be
00000070: 24e6 a2be 91de 23bf c86a f8be f882 18bf

cnn_layers.13.running_mean f4 [32]
-1.1103499 -0.21739903 -1.0462629 -0.5921759 -0.4844616 -0.5497241 -1.0695282 -1.1194862
-1.2540659 1.9599121 0.38160282 -0.32601407 0.18097779 -0.3893364 1.4403082 -0.5950638
-2.008479 -0.9973465 1.7317086 -1.474311 -0.67855835 -2.4620328 -1.5855309 -0.70968765
-2.1392756 -1.3351767 1.0104737 -1.3513652 0.3356141 -1.6074134 0.05188086 0.6064148
00000000: f21f 8ebf da9d 5ebe f1eb 85bf d798 17bf
00000010: 5a0b f8be b8ba 0cbf 4de6 88bf 534b 8fbf
00000020: 3b85 a0bf 66de fa3f 7261 c33e 51eb a6be
00000030: 3e52 393e 1a57 c7be 055c b83f 1a56 18bf
00000040: ec8a 00c0 1a52 7fbf a1a8 dd3f 39b6 bcbf
00000050: 00b6 2dbf f291 1dc0 adf2 cabf 17ae 35bf
00000060: e4e9 08c0 12e7 aabf 3457 813f 89f9 acbf
00000070: 9cd5 ab3e b9bf cdbf 0681 543d 003e 1b3f

cnn_layers.13.running_var f4 [32]
2.0092661 1.5482236 2.22265 1.9969643 1.7959074 1.7663499 2.0853531 2.2839653
1.6797972 1.4861158 1.8163875 2.5082347 1.8112794 1.9674271 1.7503272 1.6978903
2.5743208 2.5788054 1.7260282 2.4916685 1.8380635 1.8109281 3.24336 2.689884
2.8431807 1.7245656 1.6205766 2.0514116 2.3141134 2.6458266 2.0780046 2.3400614
00000000: d197 0040 312c c63f e63f 0e40 879c ff3f
00000010: 4be0 e53f c117 e23f 6d76 0540 7d2c 1240
00000020: 9803 d73f 0b39 be3f 637f e83f eb86 2040
00000030: 01d8 e73f a7d4 fb3f b90a e03f 7854 d93f
00000040: acc1 2440 260b 2540 7eee dc3f 7f77 1f40
00000050: aa45 eb3f 7ecc e73f 3693 4f40 0f27 2c40
00000060: acf6 3540 91be dc3f 0e6f cf3f 544a 0340
00000070: 6f1a 1440 3955 2940 07fe 0440 91c3 1540

cnn_layers.16.weight f4 [32, 32, 3, 3]
0.08363997 -0.0053144326 -0.0026054766 0.025854882 -0.011787944 0.09738375 0.22606753 0.12685844
-0.11946808 -0.07415821 0.02687281 0.078229934 -0.16365565 0.009641613 -0.060413368 0.035685554
-0.054197565 0.13012812 0.19433047 -0.11862287 -0.14236288 -0.15813835 -0.0759892 0.22804834
0.13627468 0.06890824 -0.038220007 -0.0451613 -0.18432115 -0.057967514 0.092284545 -0.011147329
0.022511171 -0.013125074 0.086821035 0.042593382 -0.09320791 0.0034231495 0.08855368 0.055259038
-0.024739612 -0.039206874 0.25076336 0.21338053 -0.11898771 0.19092529 0.106694 0.010113487
0.10691932 0.14858504 0.17660742 0.18686001 0.08378922 -0.019214861 -0.031546634 -0.14986323
-0.13278154 -0.085599765 -0.1809961 -0.046483696 -0.09148862 -0.2333098 0.10443629 -0.23505332
-0.18555258 -0.011662415 0.12399194 -0.0030544626 -0.16883083 0.26973543 -0.10721746 -0.12356945
0.05296862 0.03266591 -0.010994324 -0.053658735 0.0963778 0.11241586 0.28598252 -0.03621303
0.029776555 0.010531421 -0.10706616 -0.045717128 0.023398312 0.11095084 0.17170393 0.113043785
0.18237968 0.08901161 -0.15444788 -0.084168114 0.036417775 -0.09630154 -0.026026828 0.13134056
-0.018331213 -0.14588463 -0.015492859 -0.060893934 -0.14711843 -0.11197276 0.11798623 0.04319999
-0.13111226 -0.14912473 0.05314087 -0.04819191 0.2210766 -0.096006446 0.063782476 0.009125735
-0.08838367 -0.17014895 -0.09662879 0.016312104 0.031842496 -0.14035502 0.09388979 -0.040572956
0.02723404 0.0935698 -0.080499254 0.31632358 -0.0026584107 -0.034784436 0.007564615 -0.10459386
-0.21581683 0.027994798 -0.12072355 0.26136896 -0.16885176 -0.015015259 0.1756827 0.10811003
0.04281991 -0.055900052 -0.10670952 0.07192945 0.10114115 0.10342555 0.15361851 0.026299749
0.07955523 0.15547441 0.023484224 0.28570804 0.14579508 -0.27353284 -0.030141637 -0.019794306
-0.065869555 0.10928084 0.054892953 -0.17839724 0.05136803 0.27555126 -0.08315162 0.12096418
0.13274245 -0.018330878 0.022558698 0.011032504 -0.20091236 0.018118048 0.13884623 0.007391033
-0.09504799 0.09697818 0.036077686 0.10371626 0.011178034 -0.049425356 0.09296362 0.108804666
0.032871563 0.23593386 0.082538135 0.047731023 -0.052181333 -0.0634217 0.07554532 -0.026174864
-0.10929333 0.019675486 -0.05158217 0.1189261 -0.2225115 -0.10963907 0.16508043 -0.0069623757
-0.15940166 -0.02795653 0.13435444 0.25965333 0.01460767 -0.028776672 -0.0097999 -0.08630401
0.098276764 -0.09286588 -0.05310025 0.1362927 0.1671867 -0.010726104 -0.005502281 -0.1726364
0.007327195 -0.08211218 -0.18575159 -0.078884766 -0.011156845 -0.055335037 -0.21961597 -0.046652194
-0.063923374 -0.0315295 -0.14268896 -0.19422938 -0.01748674 0.10175132 -0.116211906 0.10061604
0.093936704 0.10683946 -0.11962339 -0.07822973 -0.13265006 -0.21517652 0.08118357 -0.034875683
-0.32326216 -0.12106357 0.11382139 -0.12653024 -0.0036137665 -0.09582068 -0.20587166 0.23284258
-0.1846646 0.033924647 0.038093682 -0.099320926 0.034786887 0.17450982 -0.029242815 0.01989872
0.0758988 0.1854605 -0.2700072 -0.08525072 -0.033860695 0.068618655 -0.07086309 -0.18020715
00000000: 6f4b ab3d b124 aebb a5c0 2abb 9ecd d33c
00000010: 3822 41bc 2271 c73d 3f7e 673e 2ee7 013e
00000020: aeab f4bd 42e0 97bd 5e24 dc3c 0437 a03d
00000030: 5995 27be dbf7 1d3c 0274 77bd 042b 123d
00000040: 44fe 5dbd 4e40 053e 91fe 463e 8cf0 f2bd
00000050: 93c7 11be 05ef 21be 3aa0 9bbd 8185 693e
00000060: 978b 0b3e c31f 8d3d 958c 1cbd 0efb 38bd
00000070: afbe 3cbe 586f 6dbd aeff bc3d 49a3 36bc
00000080: 5969 b83c 8d0a 57bc 3acf b13d 6676 2e3d
00000090: cae3 bebd eb56 603b a25b b53d 4d57 623d
000000a0: baaa cabc 6397 20bd 0e64 803e 6d80 5a3e
000000b0: d4af f3bd eb81 433e 6282 da3d 0ab3 253c
000000c0: 84f8 da3d ad26 183e 93d8 343e 3b58 3f3e
000000d0: af99 ab3d 7c68 9dbc 0b37 01bd bf75 19be
000000e0: e2f7 07be ee4e afbd 0b57 39be b065 3ebd
000000f0: 635e bbbd c4e8 6ebe b2e2 d53d d1b1 70be
00000100: 7f01 3ebe b713 3fbc 7cef fd3d 612d 48bb
00000110: fde1 2cbe c31a 8a3e d494 dbbd fb11 fdbd
00000120: a0f5 583d b0cc 053d 8a21 34bc 43c9 5bbd
00000130: b961 c53d 493a e63d 4d6c 923e 1d54 14bd
00000140: f6ed f33c fb8b 2c3c 8145 dbbd e241 3bbd
00000150: d1ad bf3c 323a e33d 28d3 2f3e 8083 e73d
00000160: bdc1 3a3e b84b b63d 9627 1ebe 5560 acbd
00000170: ce2a 153d be39 c5bd 3736 d5bc 247e 063e
00000180: 572b 96bc c862 15be c3d5 7dbc eb6b 79bd
00000190: 37a6 16be f951 e5bd c4a2 f13d 79f2 303d
000001a0: 4b42 06be 27b4 18be 3eaa 593d e164 45bd
000001b0: e761 623e 079f c4bd 63a0 823d 1b84 153c
000001c0: 7f02 b5bd 873b 2ebe 51e5 c5bd f6a0 853c
000001d0: 476d 023d 3ab9 0fbe 4a49 c03d d42f 26bd
000001e0: ec19 df3c 86a1 bf3d cbdc a4bd 2af5 a13e
000001f0: bb38 2ebb 207a 0ebd 97e0 f73b 4e35 d6bd
00000200: 16ff 5cbe 5955 e53c e93d f7bd 27d2 853e
00000210: 7ae7 2cbe 9002 76bc 2ae6 333e cb68 dd3d
00000220: ee63 2f3d 74f7 64bd 858a dabd bf4f 933d
00000230: 1723 cf3d c6d0 d33d 2c4e 1d3e 9272 d73c
00000240: daed a23d af34 1f3e fd61 c03c 5348 923e
00000250: 4e4b 153e 7f0c 8cbe 98eb f6bc ab27 a2bc
00000260: 9ee6 86bd a2ce df3d 6fd7 603d c4ad 36be
00000270: 4967 523d 0e15 8d3e 664b aabd 11bc f73d
00000280: a3ed 073e a32a 96bc 05cd b83c adc1 343c
00000290: f8bb 4dbe 4d6c 943c b52d 0e3e 7b30 f23b
000002a0: 85a8 c2bd 7f9c c63d 32c6 133d 3169 d43d
000002b0: 1324 373c 3e72 4abd b663 be3d fbd4 de3d
000002c0: 55a4 063d a598 713e c109 a93d 9b81 433d
000002d0: 18bc 55bd 3ce3 81bd 81b7 9a3d ab6c d6bc
000002e0: 2ed5 dfbd 7c2e a13c d347 53bd 878f f33d
000002f0: 0eda 63be 738a e0bd d80a 293e a424 e4bb
00000300: 303a 23be 1805 e5bc 3694 093e 48f1 843e
00000310: 0255 6f3c 0ebd ebbc c38f 20bc 28c0 b0bd
00000320: 5445 c93d 7730 bebd a67f 59bd 5090 0b3e
00000330: fe32 2b3e 8abc 2fbc 7a4c b4bb 99c7 30be
00000340: f718 f03b 6e2a a8bd aa35 3ebe 568e a1bd
00000350: 33cb 36bc fea6 62bd 02e3 60be 5f16 3fbd
00000360: 42ea 82bd 1425 01bd 0e1d 12be 11e4 46be
00000370: 5a40 8fbc ff62 d03d 8200 eebd c80f ce3d
00000380: e361 c03d a6ce da3d 1cfd f4bd e936 a0bd
00000390: 6bd5 07be 3c57 5cbe 9243 a63d ced9 0ebd
000003a0: 9e82 a5be 2df0 f7bd 301b e93d 2591 01be
000003b0: f1d4 6cbb a23d c4bd 05d0 52be 496e 6e3e
000003c0: b818 3dbe 92f4 0a3d 1f08 1c3d c568 cbbd
000003d0: b27c 0e3d b4b2 323e a18e efbc a402 a33c
000003e0: d470 9b3d 5be9 3d3e 623e 8abe ee97 aebd
000003f0: 83b1 0abd f087 8c3d ab20 91bd 3988 38be

cnn_layers.17.weight f4 [32]
2.280742 2.0427315 2.20263 2.012168 2.3648808 1.939129 2.4618046 2.2713656
2.2692666 2.2346747 2.099181 2.1452506 2.0098517 2.0229776 2.175172 2.2341864
2.3625724 2.2356153 2.2317991 2.0314198 1.9833765 2.0861173 2.2507355 2.3475616
2.0889485 2.3584719 1.9494388 2.257286 2.0402622 2.1786268 2.1966033 1.9553636
00000000: adf7 1140 1dbc 0240 e4f7 0c40 5cc7 0040
00000010: 355a 1740 6135 f83f 358e 1d40 0e5e 1140
00000020: aa3b 1140 e904 0f40 fb58 0640 c94b 0940
00000030: 69a1 0040 7778 0140 0536 0b40 e9fc 0e40
00000040: 6334 1740 5214 0f40 ccd5 0e40 c802 0240
00000050: 48df fd3f f282 0540 0d0c 1040 733e 1640
00000060: 55b1 0540 34f1 1640 3687 f93f 6077 1040
00000070: a893 0240 9f6e 0b40 2695 0c40 5b49 fa3f

cnn_layers.17.bias f4 [32]
0.0100401975 -0.10440238 -0.0451918 -0.09887794 0.13988148 -0.12033896 0.075379305 -0.039058648
-0.19288978 0.021678414 -0.023447767 0.029624207 -0.18797645 0.08271716 0.042403206 -0.052191146
0.059699908 0.11594481 0.051273808 -0.079761304 -0.08355182 -0.0960936 -0.04854324 0.021415342
-0.10176804 -0.0069770142 -0.10589626 -0.19515683 -0.0725936 -0.13025542 -0.1413801 0.011822051
00000000: a47f 243c ead0 d5bd 091b 39bd 8480 cabd
00000010: 173d 0f3e 4674 f6bd 7760 9a3d f6fb 1fbd
00000020: e684 45be ee96 b13c 8815 c0bc 77ae f23c
00000030: e67c 40be 9d67 a93d fcae 2d3d 62c6 55bd
00000040: e487 743d 7974 ed3d 7c04 523d e559 a3bd
00000050: 371d abbd b9cc c4bd 47d5 46bd 3a6f af3c
00000060: c36b d0bd 709f e4bb 23e0 d8bd 31d7 47be
00000070: f4ab 94bd ad61 05be f2c5 10be 47b1 413c

cnn_layers.17.running_mean f4 [32]
0.10251882 1.0574402 -0.6220036 0.7391247 -0.40853214 1.0383085 0.021985438 0.30469695
0.45532015 0.5354819 0.26394027 0.32061195 0.10654682 0.17900413 0.48223844 0.37098897
-0.47268638 0.34785852 0.80620944 1.4352746 0.9269253 0.64744514 0.60622907 0.59268665
0.18330681 0.5642474 0.30785617 0.33461952 0.13417478 1.3696449 -0.3172157 0.9384688
00000000: 63f5 d13d 335a 873f a13b 1fbf 4737 3d3f
00000010: 202b d1be 4be7 843f ce1a b43c 3d01 9c3e
00000020: b91f e93e 5815 093f 2e23 873e 4027 a43e
00000030: 3835 da3d dc4c 373e f5e7 f63e 44f2 bd3e
00000040: f303 f2be 831a b23e be63 4e3f 14b7 b73f
00000050: fa4a 6d3f f7be 253f d431 1b3f 50ba 173f
00000060: c8b4 3b3e 8572 103f 539f 9d3e 4053 ab3e
00000070: 1d65 093e 8650 af3f 196a a2be 7e3f 703f

cnn_layers.17.running_var f4 [32]
1.1909449 1.2517881 1.1711787 1.4315176 1.2026119 1.3245507 1.270177 1.2963815
1.065602 1.1435089 1.264163 1.1467547 1.0705097 1.8109186 1.3037953 1.0344015
1.0564224 1.0548929 1.2564487 1.2363334 1.2107244 0.9441481 1.188696 1.2485468
1.4235288 1.0225824 0.9896453 1.0176733 1.2897823 1.4288492 1.1453171 1.0771424
00000000: e270 983f 983a a03f 2fe9 953f f83b b73f
00000010: 30ef 993f e18a a93f 2995 a23f d4ef a53f
00000020: a565 883f 805e 923f 18d0 a13f dcc8 923f
00000030: 7606 893f 2ecc e73f c4e2 a63f 4567 843f
00000040: d938 873f bb06 873f 50d3 a03f 2c40 9e3f
00000050: 04f9 9a3f b1b3 713f 3127 983f 62d0 9f3f
00000060: 3136 b63f fbe3 823f 6559 7d3f 1e43 823f
00000070: 9617 a53f 88e4 b63f c099 923f cddf 893f

linear_layers.0.weight f4 [14, 128]
0.28783557 0.29784974 0.2925984 0.36013776 -0.12781917 -0.39387912 0.112293884 0.18583116
-0.19336896 -0.79072845 -0.08076851 -0.11259602 -0.16672507 -0.22392005 -0.16079287 -0.12384889
0.14708517 0.17689998 -0.05396036 0.10693523 -0.047820844 -0.21640433 0.10319875 0.3139077
0.12039158 -0.11440839 -0.12660171 0.049109757 -0.08636821 -0.10598925 0.08810031 -0.6465059
0.31360933 0.35808063 0.089123905 -0.07930429 -0.63142765 -0.6051019 -0.44911352 -0.33875996
0.059940893 -0.17571703 0.1651551 -0.03961498 -0.26281202 -0.045407083 -0.17773259 -0.16980405
0.11027115 0.18532448 -0.11008121 -0.06269842 0.30168092 0.13058831 0.083061986 0.13698293
0.7311396 0.2550052 0.2832309 0.702563 0.004648479 0.38581607 -0.14919859 -0.094959915
0.5678264 -0.440968 -0.056932747 -0.27387935 -0.3713184 -0.05566291 0.02332432 0.17456129
-0.56283104 -0.562561 -0.16681434 -0.20446038 0.06227866 -0.2221213 -0.06043569 0.18285228
-0.18280376 -0.22646353 0.3910989 -0.16647649 0.25041175 0.23110545 -0.22918114 0.0020397792
-0.10653845 0.22589669 -0.02366362 -0.24856474 -0.12718089 0.20432843 0.006707719 -0.31211397
0.23558228 0.46783692 0.33229452 0.30260673 0.17019343 0.07247287 -0.06660832 -0.025438862
-0.015955353 -0.23395212 -0.4449547 -0.23998418 -0.15625423 -0.08218037 -0.09021695 0.090422295
0.24475361 0.15368289 -0.048146136 -0.09812165 -0.45166025 -0.28633377 -0.2357327 -0.26641262
-0.2534718 0.18403627 -0.16409944 -0.20516564 -0.27265045 0.23506384 0.060340323 0.1333225
0.40940517 0.011038189 -0.48639748 -0.3192452 -0.095888816 0.16065219 -0.0028968228 0.29046646
0.3384603 -0.12574995 0.10783739 0.19531275 0.06906027 0.11169088 0.16954747 0.057203844
-0.43530306 -0.40385655 -0.13280524 0.39480588 -0.06892868 0.04392399 -0.15359524 0.14892958
0.15191609 0.017601265 0.14309348 0.17975265 0.1827322 0.20882052 0.08236831 -0.33516842
0.30624402 0.58552665 0.32891965 0.56328684 -0.07613581 -0.043973915 -0.3998231 -0.35824138
-0.40037075 -0.38565445 -0.33558765 -0.14280911 -0.0077394038 -0.062402338 0.022403093 -0.01954394
-0.25915802 -0.40884995 -0.18548861 -0.5434723 -0.36851248 -0.20825218 -0.19824477 -0.08833176
-0.5426605 -0.15747368 -0.14315492 -0.048609216 0.19658336 -0.11577187 0.15249401 -0.38642997
0.2618598 0.40353075 0.20309576 -0.011003726 0.11710888 0.122529596 0.1314 -0.033335917
-0.09649944 -0.2969884 -0.14953887 -0.2393574 0.3336974 0.3781991 -0.04188578 0.20551509
0.034054894 -0.2542322 0.054968905 -0.028560193 0.365395 0.3711433 0.14070469 -0.027843202
-0.5338674 -0.049414683 -0.29455858 -0.05925326 -0.5793916 -0.51487297 0.3522927 0.4637217
-0.68438786 -0.5339375 -0.03965727 -0.19440761 -0.5528098 -0.5169209 0.08011164 -0.020890232
0.33286932 0.0012872852 0.2552607 0.041335493 0.27646935 0.48300266 -0.2343641 0.54883707
-0.004256864 -0.3494042 -0.10878573 -0.0688836 -0.3142267 -0.1685992 -0.33623254 -0.12741795
0.039436765 -0.18633811 -0.029532151 -0.26406205 -0.21812868 0.3035703 0.030734317 0.18098083
00000000: 2f5f 933e c37f 983e 75cf 953e fa63 b83e
00000010: 07e3 02be 86aa c9be 56fa e53d 864a 3e3e
00000020: 8302 46be 2e6d 4abf f669 a5bd be98 e6bd
00000030: fab9 2abe 4c4b 65be e3a6 24be 7da4 fdbd
00000040: 7f9d 163e 4525 353e 8a05 5dbd dc00 db3d
00000050: cadf 43bd 1999 5dbe de59 d33d 83b8 a03e
00000060: dc8f f63d f24e eabd e1a3 01be 5027 493d
00000070: d1e1 b0bd e410 d9bd ef6d b43d 6981 25bf
00000080: 6791 a03e 5856 b73e 9886 b63d 4a6a a2bd
00000090: 3ea5 21bf f5e7 1abf 35f2 e5be f271 adbe
000000a0: 9584 753d 2aef 33be 6b1e 293e 5143 22bd
000000b0: 4c8f 86be c7fc 39bd 88ff 35be 1de1 2dbe
000000c0: d7d5 e13d b3c5 3d3e 4272 e1bd 0768 80bd
000000d0: ec75 9a3e f1b8 053e 671c aa3d 4145 0c3e
000000e0: f72b 3b3f 0b90 823e a403 913e 2bdb 333f
000000f0: 4552 983b af89 c53e 84c7 18be 587a c2bd
00000100: 125d 113f 8fc6 e1be 5032 69bd ea39 8cbe
00000110: 721d bebe cbfe 63bd a512 bf3c 32c0 323e
00000120: b215 10bf ff03 10bf 61d1 2abe 105e 51be
00000130: e817 7f3d c473 63be 6a8b 77bd a13d 3b3e
00000140: e930 3bbe 0ee6 67be 1d3e c83e d078 2abe
00000150: f835 803e e8a6 6c3e 76ae 6abe d1ad 053b
00000160: d530 dabd 7651 673e 35da c1bc c187 7ebe
00000170: b53b 02be 793b 513e 6dcc db3b 67cd 9fbe
00000180: 7b3c 713e 5288 ef3e 8222 aa3e 45ef 9a3e
00000190: 3047 2e3e a86c 943d f169 88bd 2965 d0bc
000001a0: cdb4 82bc 2591 6fbe 1ad1 e3be 6abe 75be
000001b0: 1c01 20be 2f4e a8bd aac3 b8bd 532f b93d
000001c0: b1a0 7a3e 0c5f 1d3e e234 45bd 01f4 c8bd
000001d0: 0340 e7be 579a 92be ea63 71be 3c67 88be
000001e0: 0ec7 81be 0174 3c3e af09 28be f116 52be
000001f0: d798 8bbe 93b4 703e 6a27 773d b285 083e
00000200: 8e9d d13e 85d9 343c 1709 f9be 1b74 a3be
00000210: 5b61 c4bd 0282 243e 9fd8 3dbb 05b8 943e
00000220: ab4a ad3e 98c4 00be d9d9 dc3d 1100 483e
00000230: 796f 8d3d 30be e43d da9d 2d3e 944e 6a3d
00000240: 0be0 debe 49c6 cebe 19fe 07be ff23 ca3e
00000250: 7b2a 8dbd a4e9 333d 1248 1dbe ff80 183e
00000260: e48f 1b3e 8730 903c 1987 123e 1411 383e
00000270: 261e 3b3e 0cd5 553e b7b0 a83d 329b abbe
00000280: 04cc 9c3e 13e5 153f 2868 a83e 9133 103f
00000290: 17ed 9bbd fe1d 34bd 9db5 ccbe 6a6b b7be
000002a0: 65fd ccbe 8074 c5be 25d2 abbe 8d3c 12be
000002b0: d39a fdbb 9899 7fbd b186 b73c 9d1a a0bc
000002c0: 5cb0 84be c854 d1be baf0 3dbe 0021 0bbf
000002d0: abad bcbe 0f40 55be ad00 4bbe 48e7 b4bd
000002e0: cceb 0abf c840 21be 3497 12be 751a 47bd
000002f0: 264d 493e cd19 edbd 6427 1c3e 26da c5be
00000300: 7d12 863e 959b ce3e 56f8 4f3e f948 34bc
00000310: c8d6 ef3d ccf0 fa3d b98d 063e 3e8b 08bd
00000320: 80a1 c5bd dd0e 98be b820 19be 1b1a 75be
00000330: 63da aa3e 50a3 c13e 6c90 2bbd 8c72 523e
00000340: 257d 0b3d b92a 82be 1327 613d 11f7 e9bc
00000350: 0e15 bb3e 7f06 be3e e414 103e 6d17 e4bc
00000360: 89ab 08bf 0d67 4abd 62d0 96be 8cb3 72bd
00000370: 0253 14bf b7ce 03bf b55f b43e ee6c ed3e
00000380: 0b34 2fbf 21b0 08bf a96f 22bd ca12 47be
00000390: f184 0dbf ee54 04bf 9211 a43d fe21 abbc
000003a0: d96d aa3e 20ba a83a 88b1 823e 684f 293d
000003b0: 648d 8d3e 204c f73e 25fd 6fbe 9680 0c3f
000003c0: 2a7d 8bbb 1be5 b2be 0ecb debd d812 8dbd
000003d0: 52e2 a0be 45a5 2cbe ac26 acbe da79 02be
000003e0: 7288 213d 6bcf 3ebe 69ed f1bc 2433 87be
000003f0: 205d 5fbe 916d 9b3e 89c6 fb3c 0a53 393e

linear_layers.0.bias f4 [14]
0.07838944 0.0657069 0.09200645 -0.04568528 -0.017706826 0.033684798 0.08865131 -0.05342808
-0.0962072 0.01717213 -0.18684256 -0.04922191 -0.0057787425 0.007521554
00000000: a58a a03d 5791 863d e16d bc3d 7d20 3bbd
00000010: e80d 91bc 12f9 093d d18e b53d 67d7 5abd
00000020: 4808 c5bd 91ac 8c3c a853 3fbe ea9c 49bd
00000030: 9b5b bdbb 5e77 f63b
