checkModel.pth (torch, 156387 bytes, 32 tensors)

cnn_layers.0.weight f4 [8, 3, 3, 3]
000000 9b 09 9b bd d7 9d c2 3d 03 16 c8 3e 1d 0d 03 be
       -0.075701915 0.09502762 0.39079294 -0.12797971
000010 12 ef bf bb 06 38 da 3e 18 49 21 3d 5e b0 bc 3d
       -0.005857357 0.42620867 0.03937635 0.09213327
000020 61 35 00 3d 97 f3 88 be 33 4a cd bd 31 49 14 3e
       0.031300906 -0.26748344 -0.10023918 0.14481045
000030 9a f5 bd bd cb 16 f3 bd 3d b8 06 3f 6a 66 45 bd
       -0.092753604 -0.11869582 0.52624875 -0.048193373
000040 09 ac 3d 3c 86 dd 76 bd 15 2d 93 bd 85 78 97 3d
       0.011576661 -0.060269855 -0.07186333 0.07396034
000050 75 f9 c5 3e 7d 50 5f be a5 95 59 3c 49 e6 42 3e
       0.38666883 -0.21808048 0.013280307 0.1903316
000060 82 0a 86 be c1 ee 1c 3e 24 dc 5a 3d 4e 34 bb 3d
       -0.26179892 0.15325452 0.0534326 0.09140836
000070 cb bc b7 3d 14 20 28 be 7e d3 58 be 45 ac 58 3e
       0.08971556 -0.16418487 -0.21174428 0.21159466
000080 32 5e 04 3e 74 70 07 be 94 3f 2b be 29 9f b8 3e
       0.12926558 -0.13226491 -0.16723472 0.3605893
000090 1d 31 5c be 09 22 a5 3e 66 42 07 be ee 1c 8b 3d
       -0.2150311 0.3225253 -0.13208923 0.06792627
0000a0 e1 ce ff bd 09 9c fc 3d 55 60 d0 3d 49 9d 91 be
       -0.12490631 0.12334449 0.10174624 -0.28440312
0000b0 6d b8 bc 3e bf 19 43 be 22 2e fc 3d 86 3a fb 3b
       0.36859456 -0.1905279 0.12313487 0.0076668886
0000c0 b8 9b f4 bd 81 17 f9 3d ca 01 3a bc 6a 9b 15 3d
       -0.119437635 0.12162686 -0.011352966 0.036525168
0000d0 0b a5 88 be 87 82 d8 3e 53 af 06 bd 3b 8d 5b 3b
       -0.26688418 0.42287084 -0.032882046 0.0033500928
0000e0 69 98 21 3e 22 8d 66 be 89 19 a8 bd a9 d1 19 be
       0.15780796 -0.22514775 -0.082079954 -0.15021385
0000f0 be 44 a5 be fb 30 c4 3e 7f de 6b be fa 7e 3e 3c
       -0.3227901 0.3831862 -0.23034094 0.011626953
000100 de 25 87 bd 86 bf af bd a9 f8 ce be 8d 85 cf 3d
       -0.065990195 -0.08581452 -0.40424088 0.10132895
000110 87 98 42 be c5 a5 35 be e3 52 24 3e c4 1a 07 bd
       -0.19003497 -0.17739017 0.16047244 -0.03298451
000120 d4 ac b2 bd 32 5d 52 3a b2 1c 20 be 7c 9d a6 be
       -0.087243706 0.00080247514 -0.15635946 -0.32542026
000130 da 06 4e 3e fe f7 af 3d eb 89 3d be 53 53 52 3e
       0.20119801 0.08592223 -0.18509643 0.20539598
000140 c7 24 21 be b9 a8 0e 3e b7 3b 4d 3e 91 53 82 bd
       -0.15736686 0.1393155 0.2004231 -0.06363595
000150 85 2a 82 bb 7b 40 0b bd 6c 35 39 bd e3 8e d7 bd
       -0.003972354 -0.03399704 -0.045216963 -0.105253
000160 9f b2 b5 be ce df 15 3e aa 4e 0c bc ad 1a c6 3e
       -0.3548784 0.14636156 -0.008563677 0.38692227
000170 1d 8d 8a 3e f9 18 78 3d 18 7f 09 3e d5 fd 40 be
       0.27060786 0.06057069 0.13427389 -0.18846829
000180 80 80 7b be f0 d5 8b 3b 10 0d 4c bd 07 06 0a 3e
       -0.24560738 0.0042674467 -0.049817145 0.13478862
000190 eb 23 9a 3e 38 be 09 3e d9 6c 2c 3e 73 ce e8 bc
       0.30105528 0.13451469 0.16838397 -0.028418755
0001a0 40 77 d2 3d fe 6a 90 be 7e 38 81 be 20 f8 40 be
       0.102766514 -0.2820663 -0.25238413 -0.18844652
0001b0 c3 66 a0 3d ee 37 f4 3d 28 af 89 3b 97 16 b2 3e
       0.078321 0.1192473 0.0042017885 0.3478286
0001c0 8c a3 46 3e ff 43 81 3d 52 fe 68 3e 7a fc 19 3e
       0.19398326 0.06311797 0.22753266 0.15037718
0001d0 5d 4a d3 3d 01 2a 18 3e 94 8e c6 bd d1 46 88 3e
       0.10316918 0.14859773 -0.09695163 0.2661653
0001e0 c9 9e 70 3e 7e 15 1c bd 83 97 3f 3e cb 61 a4 3e
       0.23498072 -0.038106434 0.18710141 0.3210586
0001f0 e0 ab 56 3d 7f fc 6c 3e 6f c8 36 3e a9 29 1f be
       0.052410007 0.23143195 0.17849897 -0.15543236
000200 78 a0 fb 3d 06 2e 53 3c 7c 8b d0 3d 30 69 60 3d
       0.12286466 0.012889391 0.101828545 0.054787815
000210 fb 2f 88 3e 1e b5 e5 3d cb 56 56 3e 49 f6 59 bd
       0.26599106 0.11216186 0.20931546 -0.05321339
000220 1c ff e7 3d c6 a1 82 3e 13 eb 3d 3c 23 90 81 3d
       0.11327955 0.25514048 0.011591691 0.0632632
000230 16 8b 85 3e 98 25 c2 be 77 74 93 3c f6 e2 13 be
       0.26082677 -0.37919307 0.01799987 -0.14442047
000240 2b 53 40 3d af b7 03 3e 02 62 5b 3e cd bd 2f be
       0.046954315 0.12863038 0.21424106 -0.17162247
000250 1c 6c a6 bd 8d 12 bf bb 88 7a b7 be 53 4d e9 3d
       -0.08126089 -0.005831069 -0.3583567 0.113917015
000260 21 ea 94 3d 13 34 e8 3b 67 56 82 bd d4 dd 27 3d
       0.07271219 0.007086286 -0.06364136 0.040983036
000270 2b 48 91 be 8f 96 92 be 12 3f 5c 3e 92 4a b9 be
       -0.28375372 -0.28630492 0.21508434 -0.36189705
000280 01 31 6e bd de 80 fa 3c 39 1f 82 be 87 ed a8 be
       -0.058152203 0.030579027 -0.25414446 -0.3299372
000290 9f be 15 3e 57 61 0c be 27 17 6d be 7e 27 37 3e
       0.14623497 -0.13709007 -0.23153363 0.17886159
0002a0 88 11 77 3e 22 be 10 be 5b ab cb bd 7e 48 1a be
       0.24127781 -0.1413503 -0.09944793 -0.15066716
0002b0 2f 95 70 be 25 b8 2d 3e 39 64 0c 3e de 6f 8e be
       -0.23494409 0.16964777 0.13710107 -0.27819723
0002c0 2c 3c 2d be 00 ea 46 3e 8b d3 cb bd 63 30 a8 bb
       -0.16917485 0.19425201 -0.09952458 -0.0051327213
0002d0 64 fd ec bd ef c3 b7 be 50 6a 0f 3d 03 6a 9c 3d
       -0.11571768 -0.35891673 0.035013497 0.07637408
0002e0 5a fd d8 be 22 22 1d 3e e0 c8 f9 3c 74 01 61 be
       -0.42380792 0.15345052 0.030491292 -0.2197321
0002f0 9e 60 33 3e 67 f6 67 be 9e b2 c7 bd 55 6e 2a 3d
       0.17517325 -0.22652589 -0.097508654 0.041609127
000300 0e 43 00 3e 0b 91 52 be d3 cf f2 bd fa 65 b7 3e
       0.1252558 -0.20563142 -0.118560456 0.3581999
000310 29 10 85 bc ad 68 62 be 41 01 89 be 47 f4 13 be
       -0.016243057 -0.22110243 -0.2675877 -0.14448653
000320 34 f5 03 3d dd 70 4d be 7d a0 75 be db 11 52 3e
       0.032216266 -0.20062585 -0.23987003 0.20514624
000330 08 6c 4d 3e de 83 8a 3e 1f 64 dd 3b 99 c6 a5 be
       0.20060742 0.27053732 0.00675632 -0.3237808
000340 89 2b 1b be 39 28 d4 bd c1 5d 00 3d 25 7d ca bb
       -0.15153326 -0.10359234 0.03133941 -0.006179469
000350 32 43 02 bd 42 4d 88 3e 7b c6 12 3e da 56 99 bd
       -0.031802364 0.26621443 0.14333527 -0.07487269

cnn_layers.1.weight f4 [8]
000000 8b 0f a2 3f 0e 71 75 3f 5e 58 4e 3f 1a ec 8c 3f
       1.2660993 0.9587563 0.8060359 1.1009552
000010 52 20 8c 3f 0c 8e 86 3f aa ad 5a 3f 42 e6 46 3f
       1.0947363 1.0512099 0.8542124 0.77695096

cnn_layers.1.bias f4 [8]
000000 86 a2 2b 3d 06 94 c1 bd 38 81 cb bd e4 80 9a 3d
       0.04190304 -0.09452061 -0.09936756 0.07544115
000010 08 51 5f be bb 6d 31 3c 15 fe 5e be a9 81 5c bd
       -0.21808255 0.010829384 -0.21776612 -0.05383459

cnn_layers.1.running_mean f4 [8]
000000 db 5e 24 be a2 e4 9b bd 81 59 5f 3e 2b 29 3c bd
       -0.1605181 -0.076119676 0.21811487 -0.0459377
000010 db b4 f3 be 58 94 b7 3d 3c c6 6e 3e 39 b2 d0 3d
       -0.4759892 0.08963841 0.23317808 0.10190243

cnn_layers.1.running_var f4 [8]
000000 56 5b b7 3e 90 6f cc 3d 4b f2 ce 3e 99 05 04 3e
       0.3581187 0.09982216 0.4041923 0.1289276
000010 87 4a e5 3f 24 e0 3e 3e 5d 49 06 3f 70 4d 27 3e
       1.7913369 0.1864019 0.52455693 0.16338134

cnn_layers.4.weight f4 [16, 8, 3, 3]
000000 8b ab e3 3d c2 dc 1d 3e bf 9e 7f be e1 80 08 3e
       0.111167036 0.15416244 -0.249629 0.13330413
000010 5f e2 cb 3d 61 b6 c9 be 8c ef f2 bb 4a 01 ee bc
       0.09955286 -0.39396957 -0.00741381 -0.029053349
000020 c0 74 96 be 45 74 56 3e d2 78 90 3e f7 3a d5 be
       -0.29385948 0.20942791 0.2821718 -0.4164655
000030 0a 58 98 3d 2e 5a 7f bc aa 7d 21 3d 46 14 e2 3c
       0.07438667 -0.015585465 0.039426483 0.027597558
000040 86 cf 97 3d a5 f3 94 3b d6 ef 19 bd f6 81 94 bd
       0.07412629 0.0045456463 -0.03758224 -0.072513506
000050 c4 8d 7a 3c e2 f7 e3 bc 9b 5f 6b bc 31 4e 8e be
       0.015292589 -0.02782816 -0.014366056 -0.2779403
000060 5f 0d 50 be b9 b2 a1 bc 09 e4 0d be a0 40 6e 3d
       -0.203176 -0.019738542 -0.1385652 0.0581671
000070 b7 71 04 be 42 fb 9b bd f1 a6 d3 bd 79 58 17 3c
       -0.12934004 -0.07616283 -0.10334576 0.009237402
000080 b3 15 5e be 6c 10 f7 3d 5d 8b 9d bd 39 4c 77 be
       -0.21687965 0.12063679 -0.07692597 -0.2415017
000090 9e 29 64 3e 1b 06 ca 3d c4 78 2d be 6c 95 81 3e
       0.222815 0.09864446 -0.169406 0.25309312
0000a0 bd f1 f7 3d d8 b0 ae be 52 47 4a 3e eb e7 14 bd
       0.12106655 -0.34119296 0.19753769 -0.036353987
0000b0 a4 1f cc be e6 cd 58 be 01 73 cc 3c 4b 14 26 3d
       -0.3986789 -0.21172294 0.024957182 0.040546697
0000c0 40 a2 39 3e 7e 25 31 3e 6e 19 02 be 77 11 1f be
       0.181283 0.17299458 -0.12705013 -0.15534006
0000d0 bb b1 28 be 9d 92 8a 3e 38 1f de bc 0e 8c 95 3c
       -0.16474049 0.27064982 -0.027114496 0.01825526
0000e0 61 bc 60 bd 0c bf 18 3e 73 95 2f 3e 86 3c 1a be
       -0.054867152 0.14916629 0.17146854 -0.1506215
0000f0 b2 8c 8c 3d 3d 3e d9 bc 31 19 22 3d 83 5d d3 3b
       0.06862773 -0.026518935 0.039574806 0.0064503564
000100 a9 6b 60 3d 61 b7 6d bd 57 8e 32 3e 7b 22 e4 bc
       0.054790173 -0.058036212 0.17437111 -0.027848473
000110 38 40 d4 bd 0a 19 f3 3d 07 5d 89 3d 4b f0 88 be
       -0.10363811 0.1187001 0.06707197 -0.2674583
000120 17 01 87 3d d3 8d 27 be ae 5c c7 bd 9f b1 e3 3d
       0.06592005 -0.16362695 -0.09734474 0.11117863
000130 33 79 f1 bd 0c de bf 3c e1 e2 99 3e e3 95 04 3e
       -0.11790695 0.02342131 0.30055907 0.12947802
000140 d2 00 89 3e 41 57 fb 3d f7 0d aa 3d 62 94 b8 3c
       0.26758438 0.12272502 0.08303445 0.022531692
000150 cf 50 4b 3e f4 1e 2f 3e 24 86 df 3d 09 3e b4 3e
       0.19855045 0.17101651 0.10914257 0.3520358
000160 da 19 68 3e 0d b8 25 3e 6d 1e 36 3c eb 48 64 3d
       0.22666112 0.16183491 0.0111156525 0.055733602
000170 e2 8b 11 3c 18 10 9b 3e 42 7a 11 3c cc 6d 8a 3e
       0.008883448 0.30285716 0.008879246 0.27036893
000180 86 fb 16 3d 57 a8 f0 3d 96 20 a2 3c 23 e5 23 3d
       0.036860965 0.11750858 0.019790929 0.040013444
000190 23 41 4b be c9 47 e5 bd 01 a0 75 be 24 4f 89 be
       -0.19849066 -0.111953326 -0.23986818 -0.26818192
0001a0 24 5c 42 be 3b 14 4c bd a3 eb c5 bd ca 0e fe 3d
       -0.18980461 -0.04982398 -0.09664085 0.124051645
0001b0 a7 a6 4f bd dd 68 f9 bd 75 5e 18 be 8c 2d df bd
       -0.05069604 -0.12178204 -0.14879782 -0.10897359
0001c0 9b 23 81 bd ad 4b dc bd 39 96 14 3e 69 76 75 bd
       -0.06305619 -0.107566215 0.1451043 -0.059927378
0001d0 f1 31 89 bd 1c 1b 0a bd b0 e5 07 bd ca 53 18 3e
       -0.06698979 -0.03371726 -0.03317803 0.14875713
0001e0 0b 5a b4 3d 21 b8 3a 3c df b5 39 3e ff 8e 02 3e
       0.08806237 0.011396439 0.18135785 0.12749861
0001f0 59 a0 0e 3e 79 5b a5 bd e2 ce 1f be 9a 60 3e 3e
       0.13928355 -0.08074088 -0.15606263 0.18591538
000200 0b c0 cb bd d4 22 91 3d e6 f9 3a 3e f0 78 17 3e
       -0.09948739 0.07086721 0.18259391 0.14792228
000210 13 79 9d 3e 21 c3 f5 3d c7 0d bf 3d eb 04 ad be
       0.30756435 0.120001085 0.093288 -0.33792815
000220 ad c8 9d bd 7a 7c ee bd 2f 2d 6d bd 9c ab 98 3d
       -0.077042915 -0.11644836 -0.05790442 0.07454607
000230 05 ff 90 bd be 58 41 3d b6 27 da 3d 70 2a f3 3d
       -0.07079891 0.04720377 0.106521055 0.11873329
000240 53 24 0c be c5 84 7e bd 79 d4 59 3e 9a 25 b6 3c
       -0.13685732 -0.062138338 0.21272458 0.022234727
000250 01 d9 8a be 32 ac 57 be 28 97 bb 3c 11 ed 7d 3e
       -0.27118686 -0.21061781 0.022899225 0.24797465
000260 a1 83 f5 bd 1c 17 46 bd b4 a2 81 bd ef b1 82 bd
       -0.11987997 -0.048361883 -0.06329861 -0.063815944
000270 b8 e6 1f 3e 10 54 04 be 49 44 62 bd d0 d8 34 3e
       0.15615356 -0.12922692 -0.055240903 0.17660832
000280 95 95 2c 3e 92 d0 91 3d 45 20 e5 bd 18 4a fb bd
       0.16853936 0.0711986 -0.111877955 -0.12269992
000290 9d 7f 56 be 7d 47 90 bd e7 1a 85 be 90 5d 4e be
       -0.20947118 -0.07044885 -0.25997087 -0.20152879
0002a0 2a dd 22 3d c3 dd c8 3d 76 33 64 3d 3b e0 09 be
       0.0397617 0.09807923 0.05571314 -0.13464443
0002b0 3b e4 16 3d 9a 96 48 3e 8e d0 02 be 28 46 13 bc
       0.03683875 0.195887 -0.1277487 -0.0089888945
0002c0 28 3d b2 3d d9 61 71 3e b2 f8 5d bd ec 79 65 be
       0.08703071 0.23572482 -0.054192252 -0.22409791
0002d0 fb fc ff 3c f3 13 43 be 9e b3 07 be e3 c4 06 3d
       0.03124856 -0.19050579 -0.13252112 0.03290261
0002e0 2b 5b 8b 3c ed 00 0e bd 92 28 e8 bd 01 cc 51 3d
       0.017011246 -0.03466885 -0.11335863 0.051219944
0002f0 e1 40 d4 3d ba d0 9d be 79 3f 9d be a1 23 4c be
       0.10363937 -0.30823308 -0.30712488 -0.19935466
000300 86 e1 e0 bd f9 23 c6 be d5 ff 01 be 72 d3 13 3e
       -0.10980515 -0.3869932 -0.12695248 0.14436129
000310 95 d6 b8 3d 7f e4 fc bd a1 da 21 bd 7e 74 13 3e
       0.09025303 -0.1234827 -0.03951514 0.14399907
000320 57 8a 56 3d 5a 50 f5 bd 0e 7d d8 bd fb 07 0c 3d
       0.052378025 -0.119782165 -0.10570727 0.0341873
000330 9c 22 0a 3e 33 3d 15 be 23 10 e9 bc 90 cf e8 3d
       0.13489765 -0.14574127 -0.028450077 0.113677144
000340 9c f8 d2 3e 56 18 f9 3d 8e 94 aa bc c1 00 9a 3e
       0.412053 0.12162845 -0.02082279 0.300787
000350 65 df 5f 3e 18 8e ad 3c 75 6c 3d be 0f a3 da 39
       0.21862562 0.02118592 -0.18498404 0.00041701688
000360 83 dd 61 3e 3d 10 17 3e 4f b8 1f bd 54 67 3c 3e
       0.22057156 0.14752288 -0.03899413 0.18398792
000370 9c 96 be 3c 35 79 a9 bd 20 dc 37 3d 32 6d 2a be
       0.023265176 -0.082750715 0.044887662 -0.16643217
000380 7f 7b 5b be 47 54 a1 3e e9 c7 79 3d 99 a7 50 be
       -0.21433829 0.3150961 0.060981665 -0.20376433
000390 28 9e e3 3d 5e ee 74 3d cf 73 ee 3c bf 60 de ba
       0.1111415 0.059797637 0.029107956 -0.0016966088
0003a0 64 0b 1d 3c 2d 1f 59 be 9b de f8 bd 7c 16 f8 3d
       0.009585235 -0.21203299 -0.121518336 0.121136636
0003b0 b4 f0 e0 3d 7f 51 0c be 31 67 b1 3d 07 6b dc 3c
       0.109834105 -0.13702963 0.0866226 0.026906503
0003c0 62 2c 03 bd bc da ce bd c0 d0 a9 bb f3 f1 c6 bc
       -0.03202475 -0.10100314 -0.0051823556 -0.024285292
0003d0 1e 40 5c 3e 2f 9b f6 bd 02 8f 39 3d 80 e0 dd 3c
       0.21508834 -0.12041318 0.0453024 0.027084589
0003e0 e2 6c 9b bd 4e e2 85 bd 0e 28 91 3d dc ec ec 3d
       -0.07589127 -0.06537305 0.07087718 0.11568615
0003f0 2e 25 92 3e 49 5f a7 3e a7 c9 90 3e d9 80 d5 3d
       0.2854399 0.32689884 0.2827885 0.10424966

cnn_layers.5.weight f4 [16]
000000 45 88 94 3f ce 53 55 3f b5 c9 82 3f ef cd 56 3f
       1.1604086 0.83331 1.0217806 0.8390798
000010 02 df 62 3f d4 44 60 3f 8a 6a 5a 3f d3 15 72 3f
       0.8862153 0.87605023 0.85318816 0.9456455
000020 f5 c1 6d 3f 46 95 92 3f ed b3 68 3f 67 c0 9c 3f
       0.9287408 1.1451805 0.90899545 1.2246217
000030 3e 68 73 3f 44 c8 93 3f 8c ef 9f 3f 2b ae 82 3f
       0.95080936 1.1545491 1.2494979 1.0209402

cnn_layers.5.bias f4 [16]
000000 91 3c 9d bd a9 ba 5a be 79 6a 42 be fb ad 92 be
       -0.07677568 -0.21360268 -0.18985929 -0.28648362
000010 55 d3 00 bf 50 3b a4 be d5 80 2b be 82 c9 a6 be
       -0.5032247 -0.32076502 -0.16748364 -0.32575613
000020 2e e4 f6 be 23 05 36 be ac 6f a1 be c1 77 88 3c
       -0.48220962 -0.17775397 -0.3153051 0.016658666
000030 6e da 53 bd 3c 3c 89 be ad ba 11 be ad d5 8d be
       -0.051721983 -0.26803768 -0.14231367 -0.27702084

cnn_layers.5.running_mean f4 [16]
000000 2c ec 40 bf 54 cf 68 3f 5f 72 49 bf 77 87 92 be
       -0.7536037 0.9094136 -0.7869014 -0.28618976
000010 dc 7d 4c 3e 2d c3 b4 be 80 de 88 be ea d2 e6 3f
       0.19969887 -0.35305157 -0.26732254 1.8033116
000020 65 fc b2 be c5 ba 88 bf 4c 38 9b 3f 66 fc 70 bf
       -0.34958187 -1.0681998 1.2126555 -0.9413513
000030 cd eb 6a be 35 4a 46 bf 96 73 10 c0 6b 5f 36 bf
       -0.22941513 -0.7745698 -2.2570548 -0.71239346

cnn_layers.5.running_var f4 [16]
000000 c7 fb 94 3f b6 41 be 3f 34 be a8 3f e9 cc d5 3f
       1.1639336 1.4863803 1.3183045 1.6703159
000010 88 ff 99 3f 30 2a 9c 3f 20 23 3e 3f 94 25 04 40
       1.2031107 1.2200375 0.74272346 2.0647936
000020 51 5f bb 3f 92 57 a2 3f 53 b8 68 40 66 d6 8b 3f
       1.4638463 1.2682974 3.6362503 1.0924804
000030 8d f8 93 3f 50 04 9b 3f ed 65 50 40 31 0f 8f 3f
       1.1560227 1.2110691 3.256221 1.1176511

cnn_layers.8.weight f4 [32, 16, 3, 3]
000000 08 6c 99 bd 64 73 a9 bd c0 5d 1d 3d 87 b9 31 3d
       -0.074913085 -0.08273962 0.038419485 0.043389823
000010 5e dc e6 3d 6c ee 46 3e 23 cb c5 bd 30 3c 00 3d
       0.112725005 0.19426888 -0.09657886 0.0313074
000020 59 f4 fd 3c 09 33 04 3e c2 54 34 be 0e 8a 8a 3d
       0.031000303 0.12910093 -0.17610458 0.06764613
000030 9b d9 7b 3e dc 99 04 3d 40 9d 9a 3d a5 a0 9a 3d
       0.24594729 0.032373294 0.07549524 0.07550172
000040 c8 b9 a3 bd 66 7a 83 bd 27 4a d6 3c 96 4a 8b 3e
       -0.07994419 -0.0641983 0.026158405 0.27205342
000050 b5 43 82 bd c8 df a2 bd 1c ad 0f be c3 84 b5 bc
       -0.0636057 -0.07952839 -0.1403088 -0.022158032
000060 f0 31 3e 3c 46 85 36 3d f6 2d 0e 3e 2f 2a 01 be
       0.011608586 0.044560693 0.1388472 -0.12613748
000070 ac fb 3f be e8 e4 33 3d 27 fb f2 bd c2 55 bd bc
       -0.18748349 0.043919474 -0.1186431 -0.023112182
000080 22 d4 8f bd dc 9d 66 3e f5 f8 ae 3d 92 1b 06 be
       -0.07022883 0.22521156 0.085435785 -0.13096455
000090 94 1b 13 3e 1a d3 8c 3e 5f 6a e0 3d 7f 0a 0e 3e
       0.14365989 0.27504808 0.10957789 0.13871191
0000a0 aa 97 a5 3d 56 24 82 bc 0d 5a 3c 3e 9b 02 0c bd
       0.08085568 -0.015886467 0.18393727 -0.034182172
0000b0 c0 95 88 3d 68 a7 f4 3d 38 cb 4b bd 20 87 ab be
       0.066691875 0.11945993 -0.04975435 -0.3350153
0000c0 bf eb ca bb e2 07 06 bd 2a 0f 57 be 95 e3 c2 bd
       -0.006192654 -0.03272236 -0.21001878 -0.09516064
0000d0 66 7d c5 bd 07 d2 29 3c 02 e6 34 bd 39 9a fe bd
       -0.096430585 0.010365016 -0.044164665 -0.124317594
0000e0 30 9d 23 3e d3 47 57 3e 57 e6 3f 3e b0 f0 4d be
       0.15977931 0.21023493 0.18740211 -0.20111346
0000f0 02 be 1e 3e b5 43 13 3e 2e 56 b9 3d c2 05 5d bd
       0.1550217 0.14381297 0.090496406 -0.05396057
000100 c9 c3 36 bd 72 38 97 3d 81 fa 9d 3b 26 ce 29 bd
       -0.04462031 0.07383813 0.004821122 -0.041456364
000110 69 45 a5 be 9b 49 28 3e f3 0f de 3c c9 25 60 be
       -0.32279518 0.16434328 0.027107215 -0.21889414
000120 92 dc 95 3a 6d ba 0c 3e 52 29 d4 bc 31 2e 12 3e
       0.0011433533 0.13742991 -0.02589861 0.14275433
000130 3e 3c 9c 3e dc 11 35 3e 7d 2f 6b 3e c1 80 c2 3e
       0.3051471 0.17682594 0.22967334 0.37988856
000140 2e 31 d3 3d 94 fc 0e 3e b7 0e 62 3c 91 11 aa bd
       0.10312115 0.13963538 0.013797454 -0.08304132
000150 c0 ae 92 bd be 41 73 bd 76 02 16 be 9e bc 69 bd
       -0.07162237 -0.05938887 -0.14649376 -0.057064645
000160 1d f8 5f bd 4d 2a ad 3d 9b 00 56 be ae 93 0c 3c
       -0.05467998 0.08455334 -0.20898668 0.008580131
000170 81 c4 88 3e 7d 6d e2 bd 0e 4a 77 bd ac ff 0f bc
       0.2671242 -0.110560395 -0.06037336 -0.008788984
000180 a5 0c a1 bd b1 e2 de 3c 1c 3a a7 3e 40 7f 43 3e
       -0.0786374 0.027207704 0.3266152 0.19091511
000190 f5 31 19 3d da c6 71 be e0 da d1 3d 5a f2 20 be
       0.03740116 -0.23611012 0.10246825 -0.1571745
0001a0 02 06 cc 3d 98 79 f6 bc 84 07 ad bd df 7b 6b bc
       0.099620834 -0.030087277 -0.08448699 -0.014372795
0001b0 00 77 4a bd 7a b0 3b be 26 9e 9a bd 53 1a 04 3c
       -0.049429893 -0.18329039 -0.07549696 0.008062917
0001c0 de b5 23 bd ba c3 57 be ab 06 0f bd e7 b0 53 bd
       -0.039968364 -0.21070758 -0.03491847 -0.05168238
0001d0 e3 19 80 3d dc 5d 80 be ab c3 f0 be f9 c0 eb bd
       0.062549375 -0.2507161 -0.47024283 -0.11511416
0001e0 7d 51 3b be b7 d0 85 bd 72 58 b7 3e 60 c0 6c 3c
       -0.18292804 -0.0653395 0.35809666 0.014450163
0001f0 7c fe 52 3e 10 17 e9 bc 93 65 47 be cb c8 bb 3d
       0.2060489 -0.02845338 -0.19472341 0.091691576
000200 07 20 67 bc e4 8d 7f be 30 2c 4a be bb 2e 49 bd
       -0.014106757 -0.2495647 -0.19743419 -0.04911683
000210 7e 14 0b be 67 8c 7c 3c d5 3b f5 3d d5 30 03 3e
       -0.13582036 0.015414334 0.11974303 0.12811597
000220 ec 8f af bd a0 9d 81 3e 39 9e 86 3e e4 ed 99 3d
       -0.08572373 0.2531557 0.2629259 0.07516077
000230 90 0a ab 3e 71 46 4f 3d 4b f7 44 3d 70 51 8b be
       0.33406496 0.050604288 0.0480874 -0.2721057
000240 b4 96 33 be e4 02 b2 bb 9d 31 18 3e 37 22 eb 3c
       -0.17537957 -0.0054324735 0.14862676 0.028702838
000250 8c c0 83 3d 8c f6 6d 3e e8 ab 7c bc dc f6 87 3e
       0.0643321 0.23238581 -0.015421845 0.26555526
000260 4f 7f 46 be 95 6f 42 3e c2 55 a2 bd f4 eb 82 be
       -0.19384502 0.18987878 -0.07926513 -0.25570643
000270 9a 2f e8 bc cd e2 1f 3d 9b 8b af 3d 70 cb 5e bd
       -0.02834301 0.039034653 0.085715495 -0.054393232
000280 fa c0 56 3d 77 a7 ba 3d 2e 57 58 be 8a 9d 95 bb
       0.05243013 0.09113973 -0.21127006 -0.0045658993
000290 7a 3d 8c bc 95 51 64 3d d6 3c 86 3d c1 45 24 be
       -0.017119158 0.055741865 0.06554572 -0.16042234
0002a0 1e 67 83 be aa 27 02 3e 46 4f 70 be 10 ac 0c be
       -0.2566461 0.12710443 -0.2346774 -0.13737512
0002b0 c6 d9 e4 bd 80 03 4f 3e 64 08 32 3e cf 2b 6a 3e
       -0.111743495 0.20216179 0.17386013 0.22868274
0002c0 e9 34 f5 3d 29 7c 4f 3d 4d 0f d5 3d 44 df 8e be
       0.119729824 0.050655518 0.10403309 -0.27904713
0002d0 9e 5f de 3c fd 1b 00 3e 0e 97 27 3e 0e 0d c3 3d
       0.027145203 0.12510677 0.16366217 0.09523974
0002e0 4b 6c 15 3e 81 a7 b6 bd 83 02 3e 3c 2b 86 19 bd
       0.14592092 -0.089186676 0.0115972785 -0.03748147
0002f0 50 89 45 be c5 88 47 3d 3a 80 06 3e ec 93 8a be
       -0.19290662 0.048714418 0.13134852 -0.2706598
000300 2e 49 1e be 5f 08 84 3d b2 20 bb 3d 8b 92 ae 3d
       -0.15457603 0.06446909 0.091370955 0.085240446
000310 31 4d bf bc 14 9b 4e 3d 29 7f 8c be 9f 2e 9c bc
       -0.023352237 0.050440863 -0.27440766 -0.0190652
000320 03 3e d3 3d 09 c4 a1 3d a0 50 20 3c c8 c6 56 3e
       0.10314562 0.07898719 0.0097848475 0.20974267
000330 ac 31 9d 3c 90 5d a1 3c 34 87 3c be e0 d9 fe 3d
       0.019188724 0.019697934 -0.18410951 0.124439
000340 85 62 10 3e 15 a6 dc 3c 7f 58 be 3c 76 81 60 3d
       0.14100082 0.026934663 0.023235558 0.054810964
000350 37 c6 42 be 48 24 bd 3d 91 e7 93 bc 2c 62 bf 3c
       -0.19020925 0.09235436 -0.018054755 0.023362242
000360 18 ce 88 3c 42 d6 01 bd ef ad b7 3d c2 c9 11 bd
       0.016699836 -0.031698473 0.08968722 -0.035592802
000370 0c 9a 98 bd 4c 33 be 3d 7d 51 d1 3c fa db 09 bd
       -0.07451257 0.09287128 0.025551552 -0.03365705
000380 80 72 cb bc f3 dc a5 3e aa 28 46 be 47 c6 28 be
       -0.024834871 0.32395133 -0.1935145 -0.16481887
000390 24 50 01 3e 36 ae 2f bd 04 45 9f 3d 8e 7c 81 3d
       0.12628227 -0.04289075 0.077768356 0.06322585
0003a0 6b b5 c1 3d 69 4b dd bd 6e 31 46 bd a9 89 fc 3d
       0.09458431 -0.10805399 -0.048386984 0.12330944
0003b0 ea 27 75 bd 96 59 af bd f8 fb 1c 3e ad 41 2a 3e
       -0.05985252 -0.08562009 0.15330493 0.16626616
0003c0 55 3f 22 be ab 7b 02 be 94 82 33 3c bf a7 ea 3e
       -0.15844472 -0.12742488 0.010956425 0.45831105
0003d0 5e 65 57 be b9 3d 19 be c3 dc 62 3e 6c ab 7d 3c
       -0.21034762 -0.14964952 0.22154526 0.015482765
0003e0 7e 74 02 be 19 d8 18 3e 9e 5b 79 3d 36 6f b0 bc
       -0.1273975 0.14926185 0.06087839 -0.021537405
0003f0 aa 38 9a be 03 37 0f 3d b6 97 b5 3b bd 7a d2 be
       -0.30121356 0.034964573 0.005541767 -0.41109267

cnn_layers.9.weight f4 [32]
000000 40 4d 40 3f 07 0e 37 3f 8d d9 5e 3f cc 7d 92 3f
       0.75117874 0.7150578 0.87050706 1.144464
000010 2c d9 67 3f 84 4d 67 3f 3e 50 5d 3f 34 be 9b 3f
       0.90565753 0.90352654 0.86450565 1.216742
000020 b3 91 8f 3f b7 8e 77 3f 11 3f 8b 3f ea 20 4f 3f
       1.1216339 0.9670214 1.0878621 0.809096
000030 7d 39 90 3f 92 1f 89 3f 10 92 6f 3f ad df 6b 3f
       1.1267544 1.071276 0.9358225 0.9213818
000040 c6 69 8d 3f 6f 05 66 3f b0 d1 81 3f 7c 95 ab 3f
       1.1047904 0.8985204 1.0142117 1.3404994
000050 df a3 93 3f 82 1a 76 3f c4 2a 8f 3f 8c b3 83 3f
       1.1534384 0.961342 1.1184926 1.0289168
000060 46 e9 8f 3f ab 3b 62 3f 5b 0d 67 3f dd ae 94 3f
       1.1243064 0.88372296 0.90254754 1.1615864
000070 3c 06 6a 3f af fd 5f 3f b6 75 88 3f c1 41 6a 3f
       0.9141576 0.87496465 1.0660923 0.9150658

cnn_layers.9.bias f4 [32]
000000 d5 d6 e5 be e4 5c b4 be a6 bb 1e bf 64 8f f3 be
       -0.44890466 -0.3522712 -0.6200508 -0.47570336
000010 a3 bb c9 be a9 ba b1 be a9 1d bd be 50 31 79 be
       -0.39400968 -0.34712723 -0.3693669 -0.24335217
000020 bc 26 c9 be 1d 00 d4 be ae a7 8a be 7f 0e 04 bf
       -0.39287364 -0.41406336 -0.27081054 -0.5158462
000030 f6 c9 b2 bd aa 4e 4b be 1e 76 a4 be 1f 92 d0 be
       -0.08729927 -0.19854227 -0.32121366 -0.40736482
000040 19 f0 b1 be 05 6a fa be 4c 0f 7e be 8d 76 92 be
       -0.34753492 -0.4890901 -0.24810523 -0.28606072
000050 df 16 94 be 85 bc be be 02 22 31 be 88 96 97 be
       -0.289237 -0.37253204 -0.17298129 -0.29607034
000060 da 0e 7a be 77 6d e1 be d4 b6 03 bf 2b 18 76 be
       -0.24419728 -0.44028828 -0.5145085 -0.24032657
000070 4e 02 a2 be d6 23 83 be 2e e0 b0 be a7 e6 93 be
       -0.31642383 -0.25613278 -0.34546036 -0.2888691

cnn_layers.9.running_mean f4 [32]
000000 de 7a 0c 3e b8 03 64 be f1 8a 11 3f af 4d b4 bf
       0.13718745 -0.22267044 0.5685263 -1.4086207
000010 fc 2c e8 bf 21 0b 22 3f 54 29 d2 bd 62 b5 6c bf
       -1.8138728 0.6329823 -0.10261789 -0.9246427
000020 e6 2b 6b bf 6e 53 26 3f ca 2b 10 bf e2 70 c7 3e
       -0.9186386 0.64971054 -0.56316817 0.3895331
000030 5a 34 02 c0 ef 44 8f bf b8 c4 66 be 58 d0 86 3f
       -2.0344453 -1.1192912 -0.2253598 1.0532331
000040 94 5a 02 c0 bd 67 86 bf 17 6b 9f be 17 78 0d c0
       -2.0367785 -1.0500408 -0.3113639 -2.2104547
000050 6c 41 e0 bf a8 23 81 3e 09 24 94 bf 87 b0 e1 bf
       -1.7519965 0.25222516 -1.1573497 -1.7631997
000060 ee 67 26 bf 6a 56 b3 be 42 b0 11 3e 1a df be bf
       -0.65002334 -0.35026866 0.14227393 -1.4911835
000070 3e 79 ed bd 50 d0 b7 bf 22 37 6a bf ee 88 b4 be
       -0.11595391 -1.4360447 -0.91490376 -0.3526072

cnn_layers.9.running_var f4 [32]
000000 25 39 aa 3f f4 c6 88 3f aa b4 08 40 bd 47 18 40
       1.3298689 1.0685716 2.1360269 2.3793786
000010 47 b3 03 40 ed d4 f6 3f d2 a7 bd 3f 7f 7a 5d 40
       2.0578172 1.928373 1.481684 3.4606016
000020 27 08 0a 40 56 b4 c7 3f 15 26 d7 3f 84 a5 e4 3f
       2.1567476 1.5601909 1.6808497 1.7863011
000030 87 4b 80 40 1f c4 41 40 f0 ca 03 40 53 e9 d2 3f
       4.0092196 3.0275953 2.0592613 1.6477455
000040 c9 f7 48 40 a8 55 dc 3f dc 91 0e 40 1c 91 63 40
       3.1401236 1.721364 2.2276525 3.5557318
000050 85 d8 08 40 16 b1 be 3f 83 46 19 40 58 e6 80 40
       2.1382153 1.4897792 2.3949287 4.028118
000060 e4 29 01 40 30 65 df 3f fe fc 85 3f a2 0b 58 40
       2.0181818 1.7452755 1.0467832 3.37571
000070 5a b3 fd 3f 0b b4 bb 3f b9 8a df 3f 07 56 fa 3f
       1.9820359 1.466432 1.746421 1.9557503

cnn_layers.12.weight f4 [32, 32, 3, 3]
000000 f5 a3 18 3e 76 73 b0 be d4 55 e3 be 6d 9e 8d 3d
       0.14906295 -0.3446309 -0.4440142 0.06914983
000010 d3 17 07 bd ed 42 2b be 1d 64 c7 bc fa cb 96 3d
       -0.032981705 -0.16724749 -0.02433973 0.07363124
000020 3f 90 1c bc 87 1b ab 3d 38 4c dc 3d 4c 12 49 be
       -0.009555875 0.0835486 0.10756725 -0.19635886
000030 91 60 3e 3d bc 4c 53 be 8b 57 9f bc 83 b8 13 3e
       0.04647881 -0.2063474 -0.019450923 0.14425854
000040 17 3d 08 3e 50 4a 1f 3d cb 51 31 3e 34 3f 7a 3d
       0.13304554 0.03888923 0.17316358 0.06109543
000050 40 57 88 3d f3 c1 a4 3d d5 4d 87 bd 8d e4 26 be
       0.066572666 0.080448054 -0.06606642 -0.16298123
000060 f8 db 86 3d 64 eb 17 be 3f 62 a1 bd a0 b7 30 be
       0.065849245 -0.14835888 -0.07880067 -0.17257547
000070 d5 e8 b2 bd d3 eb 3c 3e 62 1e c3 bd 3f c5 17 be
       -0.087358154 0.18449335 -0.095272794 -0.14821337
000080 4c e4 27 be 4a ed 66 3d 76 33 e1 3d d7 1f 51 be
       -0.16395682 0.05637864 0.109961435 -0.20422302
000090 de e8 6f be 61 5f dd 3d 26 fb 8d 3e ff c8 01 3c
       -0.23428676 0.10809208 0.27730674 0.007921456
0000a0 a2 e2 74 3e cc 62 c0 3c b5 cc 15 3d c7 59 8f bd
       0.23914579 0.02348461 0.036572177 -0.069995455
0000b0 83 c8 ab be 52 1b e7 3d c0 4c 20 3e 2f 8c 55 3d
       -0.33551416 0.11284508 0.15654278 0.052135643
0000c0 5f 67 02 bc 09 be 95 bc 90 c8 64 be 95 b8 e8 bd
       -0.007959216 -0.018279092 -0.22342134 -0.11363331
0000d0 f5 f2 02 be 5b 32 95 be 50 eb ce 3d b3 1d d7 bd
       -0.12787993 -0.2913998 0.10103476 -0.105037116
0000e0 9c 81 8d be f9 d2 2a bc e6 2b f4 bd 99 f7 8d bd
       -0.27637947 -0.010426276 -0.119224355 -0.06931991
0000f0 bd 87 9f 3c 57 07 f2 bd 8f 80 3d bd d6 18 21 bd
       0.019473905 -0.11817806 -0.04626518 -0.039330326
000100 80 91 da 3d 6c 24 e2 3b c2 43 d6 3d fe 63 0f be
       0.10672283 0.0069013145 0.104621425 -0.14002988
000110 68 6e a9 3d 90 09 4b 3d 72 c6 2e 3e e6 18 07 3e
       0.082730114 0.049569666 0.17067888 0.13193092
000120 5c b8 9e bd 41 a1 03 3c 5f 5b 28 3e 48 7b b1 3c
       -0.077500075 0.008034051 0.16441105 0.02166523
000130 56 80 31 3d 94 e3 30 3e 9c 90 f8 3d b8 31 8c 3d
       0.04333528 0.17274314 0.12136957 0.068454206
000140 7c e0 23 3d 2d 95 03 bd 8b be fe 3d 69 d4 90 bd
       0.040009007 -0.032124687 0.12438687 -0.07071764
000150 41 f2 6c 3e e5 71 4f be ec b1 9b 3c bc 50 38 bb
       0.23139288 -0.20258291 0.019005738 -0.0028124293
000160 5c 22 c8 bd 6c 04 9c 3d f9 34 4d be 6c ea 64 be
       -0.097721785 0.07618031 -0.20039739 -0.2235505
000170 bc 3b c0 be b4 55 dd 3d 88 3d 26 3e 50 46 9a bc
       -0.37545574 0.10807362 0.1623441 -0.018832356
000180 5c c3 12 3e 96 32 f5 3d 15 b9 a5 bd ec 0a 1c 3e
       0.14332336 0.11972539 -0.08091942 0.15238541
000190 0a 94 99 bd 03 8f 00 be 77 d2 34 be 18 65 3b be
       -0.07498939 -0.12554555 -0.17658411 -0.18300283
0001a0 fb 5d 48 be e6 21 26 be 8d 52 71 bd 2c 5d 1c 3d
       -0.195671 -0.16223869 -0.058916617 0.038174793
0001b0 a8 e2 14 3d 79 79 cc 3d 93 51 df 3d 2d 93 a2 be
       0.03634897 0.099841066 0.10904231 -0.3175291
0001c0 94 73 28 be 81 8c 52 be 2f 1c 81 be ce 42 af bd
       -0.1645034 -0.2056141 -0.25216815 -0.08557664
0001d0 16 16 10 3c 89 86 9a 3d 9b e3 85 3c eb 0f d0 3d
       0.008794328 0.07545192 0.016343882 0.10159286
0001e0 b0 04 9e bb 8d 56 53 3d 83 42 13 bd 82 c3 72 be
       -0.004822336 0.051596213 -0.035952102 -0.23707393
0001f0 1c 49 33 3e f6 f0 03 3d 39 bf 94 bd 76 75 a3 bd
       0.17508358 0.03221222 -0.07263035 -0.07981388
000200 63 08 0f be 8e 96 3f 3d 3a 86 b5 3d 0f 4a 01 be
       -0.13968043 0.04677444 0.08863492 -0.12625907
000210 e9 69 59 3e cb 28 ee bc ab 64 77 3c d0 39 9e 3e
       0.21231808 -0.029072186 0.015099685 0.30903482
000220 a3 57 e5 3d ee 2a 25 be c8 d8 73 be 49 92 c3 3b
       0.11198356 -0.16129658 -0.23813164 0.0059683663
000230 4d ca e4 3d 4f 63 40 3c 45 7e 8e bc 52 f8 4e 3d
       0.11171398 0.011742427 -0.017394194 0.050529785
000240 52 1d 06 bf 68 c1 66 be 8b 42 57 3e 09 97 ac bc
       -0.5238849 -0.22534716 0.21021478 -0.021068113
000250 a8 de ac 3b 63 02 63 3d 1e d0 b8 3d 0e a3 91 bc
       0.005275566 0.055422198 0.0902407 -0.017777946
000260 1c 54 4a be 27 49 49 bd 25 c8 22 3e 8c b6 f1 bd
       -0.19758648 -0.04914203 0.15896662 -0.11802396
000270 0d be 2b 3e 84 41 8f bc 15 a9 bf 3d 18 2d eb bc
       0.16771717 -0.017487295 0.09358422 -0.028708026
000280 c8 09 0a bd 4c a3 d4 bd c7 f5 49 3e 92 a0 83 be
       -0.033700734 -0.10382709 0.19722663 -0.25708443
000290 65 0a 43 bd 9c fe 65 be 60 3b e9 3a e5 b4 75 3e
       -0.047617335 -0.22460407 0.0017794184 0.23994787
0002a0 c2 ab 93 be b8 ae df 3d c7 2f 78 3e e6 6c 17 3e
       -0.28841978 0.10921997 0.24236976 0.14787635
0002b0 18 60 77 3d 05 57 fa 3d 63 cd 89 3e ac f2 a7 bd
       0.060394377 0.12223629 0.2691451 -0.08200583
0002c0 57 a3 26 be ed e0 ef bd 8e b0 18 bd 82 ae 12 3e
       -0.16273247 -0.11712823 -0.03727775 0.14324382
0002d0 2b 70 4e 3d 19 9e 88 3e 97 86 09 3e 12 7f 19 3d
       0.05039994 0.2668312 0.13430248 0.0374747
0002e0 ae 75 a0 bd 4f b7 b5 bc 5b dc 36 be 52 19 a7 bd
       -0.078349456 -0.022182135 -0.17857496 -0.08159126
0002f0 33 c2 f3 bc 5e 64 6d bc 07 c0 b3 bd 2a c4 64 3d
       -0.029755687 -0.014489261 -0.08776861 0.05585114
000300 84 b6 3b be 19 7e 90 be 82 a8 a1 bd 87 e2 12 bd
       -0.18331343 -0.28221205 -0.078934684 -0.035860565
000310 04 7b 02 be 0e cf d8 3d 90 98 eb bc ba df 69 bd
       -0.12742239 0.105863675 -0.02875927 -0.057098128
000320 8f 3a 81 3c e5 02 34 3e 6b c8 94 bd a8 e5 a2 3b
       0.015774993 0.17579229 -0.07264789 0.004971225
000330 51 a2 72 3d e4 a2 28 bd 41 a0 9d 3d 70 10 19 3d
       0.05923683 -0.04117097 0.07696582 0.03736919
000340 0f ad 17 3e 17 6c 24 3e fb f5 d3 3d 2b ff 66 3e
       0.1481211 0.16056858 0.103496514 0.22558276
000350 2f 61 8b bc 66 13 2c 3c 69 1f 1c 3d 40 ef f2 bd
       -0.017014114 0.010502672 0.038115893 -0.118620396
000360 30 69 3d ba f5 5b e8 bc f3 51 7d 3d 2d 3e 0d bd
       -0.0007225452 -0.028364161 0.06184573 -0.034483124
000370 77 d5 15 be 05 ac ec be dc eb 61 be 19 a5 db bc
       -0.14632212 -0.4622499 -0.2206263 -0.026812123
000380 81 fe 0f be 4a 46 0f bd df 5e 36 bc e1 98 3c 3d
       -0.1406193 -0.034979142 -0.0111310175 0.046044234
000390 9b cf c1 bd e6 8e c8 ba dc e5 e3 3d a2 89 90 bd
       -0.09463426 -0.0015301376 0.111278266 -0.070575014
0003a0 58 14 d5 bd 46 f9 f7 bd e2 29 89 3e eb 43 70 3e
       -0.10404271 -0.12108092 0.26789767 0.23463409
0003b0 41 5b 27 be f9 5c 4f 3e ed 3c a8 bd 4d 10 06 3d
       -0.16343404 0.2025031 -0.08214746 0.03273039
0003c0 85 c7 6d 3d bc 58 dc 3b 6d cd ad be 5e b2 6f be
       0.058051605 0.006724445 -0.3394579 -0.23407885
0003d0 87 2a d6 3c c7 e3 9d bd dd 35 11 3e 0a 35 81 3d
       0.026143325 -0.07709461 0.14180703 0.063089445
0003e0 33 6e b6 bc 2d be 03 3e 0a ce b1 3d 9e 78 87 3e
       -0.022269344 0.12865515 0.08681877 0.2645921
0003f0 e9 72 3e 3e 6f 8a 5f 3e bb 54 1a 3e 87 d8 7d 3e
       0.18598522 0.21830152 0.15071385 0.2478963

cnn_layers.13.weight f4 [32]
000000 f3 5b 88 3f 27 cd 62 3f 94 f8 54 3f d1 b8 96 3f
       1.0653061 0.8859429 0.831918 1.1775151
000010 e1 b7 51 3f b4 49 7f 3f ac 40 71 3f 70 92 82 3f
       0.819212 0.9972184 0.94239306 1.0200939
000020 ee d0 6b 3f 10 28 63 3f ef 37 6e 3f d5 a5 6d 3f
       0.92115676 0.88733006 0.930541 0.92831165
000030 b7 e1 57 3f 09 78 8f 3f 44 36 57 3f 96 b3 6f 3f
       0.8432879 1.1208507 0.8406718 0.936334
000040 fb 69 77 3f 12 ac 79 3f 41 90 87 3f 82 7b 83 3f
       0.9664609 0.97528183 1.0590898 1.0272067
000050 b2 ab 72 3f f3 33 8a 3f d1 9d 6a 3f 03 94 71 3f
       0.94793236 1.0797104 0.9164706 0.9436647
000060 9e 49 99 3f 51 7d 84 3f ef 43 6c 3f d7 c6 83 3f
       1.1975591 1.0350744 0.9229116 1.0295056
000070 e0 3f 81 3f 6f bc 90 3f ef 05 75 3f 31 6a 55 3f
       1.0097618 1.1307505 0.9571218 0.8336516

cnn_layers.13.bias f4 [32]
000000 74 66 d3 be 2c cc f7 be 36 39 0d bf 9b d2 81 be
       -0.41289103 -0.48397958 -0.5516542 -0.25355992
000010 e8 d6 14 bf 86 79 00 bf d1 dd 94 be ce 79 eb be
       -0.5814042 -0.5018543 -0.29075482 -0.45991367
000020 12 b6 80 be da 93 00 bf 6e 3e dd be ed 23 57 be
       -0.2513891 -0.50225604 -0.43211693 -0.21009798
000030 d2 71 e3 be de 23 ad be 5c 86 8e be 3e ba ad be
       -0.44422776 -0.33816427 -0.27836883 -0.33931154
000040 24 9b 3f bf e9 95 b9 be d9 47 9a be 55 f2 ed be
       -0.748461 -0.36247185 -0.3013294 -0.46473947
000050 a1 43 50 be 95 77 be be 38 e6 9f be 41 9a ea be
       -0.20338298 -0.3720061 -0.3123033 -0.4582081
000060 18 71 7b be 6d 5e 09 be 6b 34 c4 be a0 74 04 bf
       -0.2455486 -0.13414927 -0.38321242 -0.51740456
000070 f8 86 ee be da 1c 98 be 07 79 e5 be 1a 69 02 bf
       -0.46587348 -0.29709512 -0.448189 -0.5094162

cnn_layers.13.running_mean f4 [32]
000000 a6 45 aa bf 4f 58 15 3f f3 73 69 3f e6 1f 08 c0
       -1.3302505 0.58337873 0.9119255 -2.126947
000010 1a 60 d3 3e d7 1d 56 bf 5d d8 ac bf 8e 94 28 c0
       0.41284257 -0.8363928 -1.3503529 -2.634067
000020 ec c7 8a bf 3f b0 1f bf 6e d6 7c be e2 d1 ad bf
       -1.0842261 -0.62378305 -0.24691173 -1.3579676
000030 c2 a3 83 3f 99 75 d9 bf 7c e4 8a bf 37 82 71 bf
       1.028435 -1.6989013 -1.0850978 -0.9433932
000040 1f 36 9c bf 4b e1 08 be 2c 13 86 bf 14 c0 71 bf
       -1.2204016 -0.13367192 -1.0474601 -0.9443371
000050 1b 60 8d bf ca 44 22 c0 84 0b 57 be 23 6d 85 bf
       -1.1044954 -2.5354486 -0.21000487 -1.0423931
000060 3f 09 e3 bf ab e3 8d be ca f2 85 bf b8 37 07 bf
       -1.7737197 -0.2771276 -1.0464718 -0.52819395
000070 bd b0 d8 bd 03 03 a4 bf c6 19 65 bf 69 6f 71 3f
       -0.10580585 -1.2813419 -0.8949245 0.94310623

cnn_layers.13.running_var f4 [32]
000000 2f 9b 6e 40 ee a7 05 40 12 67 14 40 cc 16 9c 40
       3.7282217 2.0883746 2.318791 4.877783
000010 73 f2 0d 40 75 63 04 40 d3 fe 0a 40 25 d0 55 40
       2.217923 2.0685704 2.1718032 3.3408291
000020 17 67 4e 40 33 ab 09 40 91 b1 12 40 09 94 4e 40
       3.225042 2.1510742 2.2920878 3.2277853
000030 d7 ad 18 40 83 59 5d 40 de af fb 3f 4b 5c d7 3f
       2.3856103 3.4585884 1.9663045 1.682504
000040 6f 84 21 40 b0 f4 14 40 4b 68 4a 40 4b 60 1d 40
       2.523708 2.3274345 3.1626155 2.4590023
000050 74 a9 1c 40 84 a0 5d 40 ae 35 25 40 d0 15 22 40
       2.4478426 3.462922 2.5814013 2.5325813
000060 02 9a 89 40 82 ae 72 40 47 f1 14 40 12 1d 5e 40
       4.30005 3.791901 2.3272264 3.4705243
000070 49 2a 1f 40 05 96 82 40 e2 fc 2c 40 1b c5 2f 40
       2.486956 4.080813 2.7029347 2.7464054

cnn_layers.16.weight f4 [32, 32, 3, 3]
000000 9f 4b 44 bd 2e 5c ea 3c c7 1c 88 bd 90 b5 07 be
       -0.04792368 0.028608408 -0.06646114 -0.13252854
000010 9e 28 f5 3d c2 a9 8a 3d 15 7e 94 bd 99 3d 8b be
       0.11970638 0.0677066 -0.07250611 -0.27195433
000020 26 4c d1 3d 27 a9 56 bd c5 b6 52 bd 84 b0 5b bd
       0.10219602 -0.05240741 -0.051443834 -0.053635135
000030 9d 5e 1d be 1a 49 ab bd af ca a1 3d 06 8c 0e be
       -0.15368123 -0.083635524 0.07899987 -0.13920602
000040 96 db 7c 3d c2 3d 11 3e 6a 69 d5 bd db 75 0d be
       0.06173285 0.14183715 -0.10420497 -0.1381449
000050 46 ef e9 bc e0 36 61 bd dc 57 47 bd c5 fe c7 3d
       -0.028556477 -0.054983974 -0.048667774 0.0976539
000060 f6 88 c9 3d 9b 1a 88 be 46 1e 02 be bf af e3 bd
       0.09840576 -0.26582798 -0.12706861 -0.11117505
000070 07 80 84 3d 76 23 26 3e 45 13 95 3d 08 bf f7 3b
       0.06469732 0.16224465 0.07279066 0.0075606145
000080 29 23 8b 3e a8 8a c7 bd d4 42 e4 3d d7 e5 84 be
       0.27175263 -0.097432435 0.11145559 -0.25956604
000090 19 b1 91 be 5a c0 89 bc 8f 32 00 3e 47 a9 d4 bb
       -0.28455427 -0.016815353 0.12519287 -0.006489906
0000a0 b2 0d 80 3e 37 d8 c5 3d e9 a6 0b bc 65 f8 0e be
       0.2501045 0.0966038 -0.008523681 -0.13961942
0000b0 38 82 b1 bc c1 bd d4 bd 93 9e 7d bd dd f8 26 3e
       -0.021668538 -0.10387755 -0.061918806 0.16305871
0000c0 75 84 ec 3d 6f 6d de bd 54 fb 09 bd 43 dc 11 3e
       0.11548702 -0.108607166 -0.03368695 0.1424418
0000d0 4a b2 8a 3d 97 50 85 be e4 2c e9 bd 73 80 3b bc
       0.06772287 -0.26038048 -0.11385515 -0.011444199
0000e0 3f 9a 59 3e 25 24 07 3e a3 64 5f 3d fa 0c 94 3d
       0.21250246 0.13197382 0.054539334 0.072290376
0000f0 e4 02 6a 3d 8f 08 85 be 26 d2 4c bd 6e a3 31 be
       0.057131663 -0.25983092 -0.0500051 -0.173475
000100 7a 17 74 be ff f9 83 bc 52 29 42 3c b2 2c b0 bd
       -0.2383708 -0.016110418 0.011850672 -0.08602275
000110 c9 c0 e1 bd a3 ec 8b 3e 91 4d 07 be 07 1f 02 3d
       -0.11023099 0.27328977 -0.13213183 0.03176787
000120 0d 1c 13 3e 3b f7 19 3c 18 c4 9d bd bf 36 15 bd
       0.1436617 0.009397323 -0.077034175 -0.036429163
000130 c4 8b b4 3b 49 9c de bd 9d a3 61 be b8 5e b2 bc
       0.0055098254 -0.10869653 -0.2203507 -0.021773681
000140 fc e4 e3 3d 34 46 c7 bd d3 86 6a bc 8e 3e 32 3e
       0.1112766 -0.09730187 -0.014314371 0.17406675
000150 93 76 c9 bd 47 66 f1 bc 8d 2d 48 3e b8 57 5b 3d
       -0.09837069 -0.029467715 0.19548626 0.053550452
000160 9e d2 25 be e2 b8 6f 3e ac 38 6e bd cd b6 61 be
       -0.16193625 0.23410371 -0.058159515 -0.22042389
000170 f7 5a 4d be 06 64 07 bd 56 0f 31 3d 2d 89 8e 3d
       -0.20054232 -0.033054374 0.043227516 0.06959758
000180 8b ce df 3d 56 89 30 bd 80 40 34 be 44 f7 43 bc
       0.10928067 -0.043099724 -0.1760273 -0.011960808
000190 bf d1 2b 3e 0f 4f b8 3e 2a 6f cc 3b 80 0c 85 3c
       0.1677923 0.35997817 0.0062388377 0.016241312
0001a0 f5 23 47 3c 04 a4 0e be 47 56 19 be b8 d3 0e bd
       0.012154569 -0.13929754 -0.14974318 -0.03486988
0001b0 fe 8e 95 bd 64 93 26 be af aa b0 bc d2 b8 03 3c
       -0.07302664 -0.16267163 -0.021565763 0.00803967
0001c0 0c df 90 be 0f d2 31 be 05 b1 75 bd 3f ad b9 3c
       -0.2829517 -0.17365287 -0.059983272 0.022665618
0001d0 61 52 79 bd e4 22 93 3e b5 8c e7 3d 90 a7 a9 bd
       -0.06086958 0.28737557 0.113061346 -0.08283913
0001e0 ca 85 ad 3e 4a 1a 4c 3e 53 22 89 3e 8b 7c 17 be
       0.33891135 0.19931903 0.26784 -0.14793603
0001f0 0c 3d 62 3d 82 ef 0b 3e 90 4c 32 bd 7d b0 c3 bc
       0.055234 0.13665584 -0.043530047 -0.023887867
000200 b8 c3 f3 3d ca 78 c4 3d 15 5e 83 bc 4d ac 37 be
       0.11902565 0.09593351 -0.016036073 -0.17936821
000210 63 29 20 bd a1 e4 fd bb af a3 94 3d 34 0d 39 3d
       -0.03910197 -0.007748202 0.07257783 0.045178607
000220 71 6d c0 bd 80 0f 15 be b6 5c 5c 3c 27 e9 c5 3d
       -0.09395874 -0.14556694 0.013449838 0.09663611
000230 5e 8a 3f 3e 88 25 aa bd 29 4b 2f be ad 9c 9e bd
       0.18705127 -0.0830794 -0.17118515 -0.07744727
000240 82 04 0d 3d 07 95 5b be d2 a9 06 bd 28 aa 35 bc
       0.034428127 -0.21443568 -0.032876797 -0.011087932
000250 f0 e7 c2 3d fe 52 8f 3e b4 39 cd bd 6c 9e 4c 3e
       0.09516895 0.27993006 -0.100207716 0.19982308
000260 2d 48 35 be 86 6a a7 3e 47 a4 58 3b a2 36 2e 3c
       -0.17703314 0.32698458 0.0033056901 0.010633143
000270 58 7d f4 3d 65 5c bf 3e c3 34 69 be 22 e3 42 bd
       0.1193797 0.3737518 -0.22774033 -0.047579892
000280 58 96 d9 bd c6 cf 20 3e c9 6a 3e 3d b0 c9 3a bd
       -0.10624379 0.1570426 0.046488557 -0.0456025
000290 81 ce 19 bc 76 21 e3 3d d5 a7 74 be a2 34 9c be
       -0.009387613 0.110903665 -0.23892148 -0.30508906
0002a0 3c 35 8e bb c1 e8 cf 3d dc 3c b5 be e5 e3 ca bd
       -0.004339842 0.10151816 -0.35397995 -0.09906749
0002b0 b7 e7 19 3d 81 89 44 3e cf be 0b bc d7 1c 09 3e
       0.037574496 0.19193079 -0.008529379 0.13389908
0002c0 2d 73 48 3e 9c 3f 2c be 69 0e dd 3d 4a 2a 6b 3e
       0.19575186 -0.1682114 0.10793764 0.22965351
0002d0 da 43 f2 3d 39 8e 3c 3d 35 40 87 bd a2 7c 2b be
       0.11829348 0.04603407 -0.066040434 -0.16746762
0002e0 8d c2 7c bd 06 25 ff 3c b2 6f 1f 3e c7 64 e1 3d
       -0.061708976 0.031145584 0.15569952 0.1100555
0002f0 f1 a4 3a bd ec 0c 8b 3d 90 a7 b0 bd d0 b0 df bd
       -0.045567457 0.06789574 -0.0862571 -0.10922396
000300 07 3a 14 3d cd b8 ec 3c c4 3a 02 be 55 65 f7 3d
       0.03618815 0.028896714 -0.1271773 0.120798744
000310 fb c9 61 bb 29 5c 4b bd 9e 50 10 bd 66 c2 58 3d
       -0.0034452665 -0.049648438 -0.035233133 0.052919768
000320 ba d3 77 3d b0 e1 50 be d7 0f a7 3d 9d 8f b6 3d
       0.060504653 -0.20398593 0.08157318 0.08914111
000330 b9 08 16 38 f6 8e 1b 3c ab ee c6 3e ae 2d dc 3d
       3.577091e-05 0.009494534 0.38853964 0.107509
000340 73 78 b8 bd b4 ff e7 bc 76 33 85 be cd 6f 3f bc
       -0.09007349 -0.028320171 -0.26015824 -0.01168437
000350 0a 33 84 3e 66 68 4c 3d a1 c6 0f be c0 72 ad 3c
       0.2582019 0.04990425 -0.14040615 0.021172881
000360 d8 db 1b 3d ee da 54 3e 03 86 cb 3d 19 a2 98 bd
       0.038051456 0.2078664 0.0993767 -0.07452793
000370 e9 94 b1 3d eb 16 d1 3d 9e 59 4a 3d 2f b7 3f 3e
       0.086709805 0.102094494 0.04940187 0.18722223
000380 8d e5 31 3e e9 c3 79 3d 57 42 37 be 7c da b7 be
       0.17372723 0.06097785 -0.178964 -0.35908878
000390 da e7 23 3e 82 cd ad 3c 49 18 a5 bd b6 ae 9f 3d
       0.16006413 0.021216158 -0.08061273 0.07796995
0003a0 ee 8f dd 3c 17 1a bd 3d 7e 03 04 be d9 ca 54 be
       0.02704617 0.09233492 -0.12891957 -0.20780505
0003b0 23 0d c8 3d d6 86 9c 3d 9c 29 c1 3d 2f e3 4c 3d
       0.09768131 0.076429054 0.094317645 0.050021347
0003c0 a2 56 de bb b9 fe 49 3e 5b 64 a3 3d f2 32 ad 3e
       -0.00678523 0.19726075 0.07978126 0.3382793
0003d0 cf 7c 4c bd c4 fb 81 bc 7c 92 9e 3d 2f 38 5d bd
       -0.049923714 -0.015867122 0.077427834 -0.05400866
0003e0 58 73 10 be 0b c5 85 bd 13 94 af bc 73 15 23 3d
       -0.141065 -0.065317236 -0.021432912 0.039815377
0003f0 75 8b 1f be ff d4 c0 bc 6d 83 77 bd ea fe a2 bc
       -0.15580542 -0.023539064 -0.06042807 -0.019896943

cnn_layers.17.weight f4 [32]
000000 5a c7 4b 3f 86 86 65 3f 3c 0c 6e 3f fd 17 6f 3f
       0.7960106 0.8965839 0.9298742 0.9339598
000010 fa 6a 7e 3f a4 64 85 3f 8d a2 4e 3f ad 77 80 3f
       0.99381983 1.0421338 0.8071678 1.0036522
000020 8c 21 62 3f fb 16 4f 3f ab 5c 83 3f 3c be 88 3f
       0.8833244 0.8089444 1.0262655 1.0683055
000030 38 81 94 3f 2b d2 75 3f 57 a8 81 3f ff 73 8b 3f
       1.1601934 0.96023816 1.0129498 1.0894774
000040 75 f5 86 3f 90 7e 8e 3f 8d f1 75 3f 52 0d 81 3f
       1.0543658 1.1132374 0.960717 1.008219
000050 98 80 75 3f 78 62 84 3f 71 cc 8e 3f 8a b1 7a 3f
       0.95899343 1.034255 1.115614 0.97927153
000060 a1 1e 89 3f 77 a8 5d 3f 84 ab 4e 3f 18 c4 9c 3f
       1.0712472 0.8658518 0.8073046 1.2247343
000070 a8 f2 35 3f 13 33 76 3f 27 3d 8b 3f dc 4a 54 3f
       0.7107339 0.96171683 1.0878037 0.82926726

cnn_layers.17.bias f4 [32]
000000 00 26 d0 be 13 f1 b5 be 86 36 c9 be e6 8e d2 be
       -0.40653992 -0.35535488 -0.3929941 -0.41124648
000010 57 9c d4 be ef f3 fd be ff 90 e0 be 66 de 9c be
       -0.41525528 -0.4960017 -0.43860623 -0.30638427
000020 a3 e5 15 bf 21 b5 ea be e8 3a e2 be 4b 9d 05 bf
       -0.5855352 -0.45841315 -0.44185567 -0.52193135
000030 a8 09 73 be 64 c1 c4 be 40 98 df be 9a 75 81 be
       -0.23734152 -0.38428795 -0.43670845 -0.25285035
000040 50 85 d3 be bb e3 02 be cc 5e 0b bf ff ea d5 be
       -0.41312647 -0.12782185 -0.54441524 -0.4178085
000050 d0 b0 99 be 88 30 cf be 56 76 ad be 28 7e e5 be
       -0.3001771 -0.40466714 -0.33879346 -0.44822812
000060 95 a6 f5 be 0a 2c 07 bf dc 42 e1 be 16 9e 9e be
       -0.47978655 -0.52801573 -0.43996322 -0.30979985
000070 0c ae be be 6d 8e d4 be b4 29 80 be b5 57 20 bf
       -0.37242162 -0.41514912 -0.25031817 -0.6263383

cnn_layers.17.running_mean f4 [32]
000000 3f 5a 7a bd 51 c8 59 be 62 b8 39 bf 16 03 7a be
       -0.06112122 -0.21267821 -0.7254697 -0.2441524
000010 35 7b be be 5f d1 df be ba 62 9e 3d 5a 77 1a bf
       -0.37203375 -0.43714425 0.07733674 -0.60338366
000020 c1 dc 08 be 75 ed 24 bd 1e 29 3e be d2 60 6e bf
       -0.13365461 -0.04026552 -0.18570372 -0.93116486
000030 d0 64 f6 be 59 01 17 bf 56 5d 3e bf da 9d 70 bf
       -0.4812379 -0.5898643 -0.7436117 -0.9399086
000040 cf c5 cb be a1 0c 86 bf 48 03 12 be 92 20 ae be
       -0.39799353 -1.0472604 -0.14259064 -0.34009224
000050 a8 77 e6 be 0d f9 6e bf 82 a7 29 bf bb 7e 75 bf
       -0.45013165 -0.9334877 -0.6627122 -0.958965
000060 21 99 fd be 98 64 23 be 63 ed 6d 3e 86 62 cf be
       -0.4953089 -0.15956342 0.23235087 -0.40504855
000070 39 8f de 3d d0 ee 77 be 75 e4 90 bf 6b 2d ee bd
       0.10867161 -0.24212193 -1.131972 -0.116297565

cnn_layers.17.running_var f4 [32]
000000 f8 b5 99 3f e2 a4 cd 3f 36 88 e2 3f 55 49 c0 3f
       1.2008657 1.6065943 1.7697818 1.5022379
000010 af 71 b8 3f ce b4 ca 3f 8a 6f a7 3f a7 dd f4 3f
       1.4409693 1.5836427 1.3080914 1.9130143
000020 b8 27 b6 3f 65 fe a3 3f 42 b8 9f 3f 05 2a d9 3f
       1.4230871 1.281201 1.2478106 1.6965948
000030 c6 3e 1d 40 56 71 c4 3f ac 07 cb 3f df cc 09 40
       2.4569564 1.5347087 1.5861716 2.1531293
000040 17 5a f7 3f 9a 4f 17 40 35 86 c7 3f 31 24 e7 3f
       1.9324368 2.3642335 1.5587832 1.805792
000050 9b a5 a6 3f f9 5e 0a 40 c4 c7 f3 3f a6 54 bf 3f
       1.3019289 2.1620467 1.9045339 1.4947708
000060 b9 9d dc 3f c5 ac b3 3f 44 1d c3 3f 42 18 0f 40
       1.7235633 1.40371 1.5243306 2.2358556
000070 ab cf a9 3f a0 69 b2 3f a7 7c 15 40 40 ba a4 3f
       1.32665 1.3938484 2.3357332 1.2869339
