savedModel.pth (torch, 150259 bytes, 32 tensors)

cnn_layers.0.weight f4 [8, 3, 3, 3]
00000000: 99dd bb3d 800d 483e b96e 9cbc 940a 61bd
00000010: e963 783e e440 6d3e 41d3 433c 33a0 d23e
00000020: 7bd3 013d 0001 eb3a 0cb1 1d3e b017 563e
00000030: df71 3f3e 320f 983e e45b 3f3e 4b6b 92bd
00000040: 01d8 393e 86ec 4e3d 1593 6fbe 9eb9 dabd
00000050: 551a 073d 1b29 453e 6915 3d3e 7749 eabc
00000060: a698 46be 1286 a03d 4f86 7c3d 21a8 a8bd
00000070: b51c 63be 5212 99bb 55f3 8c3e f821 85bd
00000080: 23aa 55bd f8dc a33e ff08 fe3d 6ae0 22be
00000090: 7def 823d b3d0 b4bc 2e79 cf3c 1ad5 f93c
000000a0: 83d6 41bd 0522 d03d aa6a 633e 1398 05be
000000b0: 845f 62be b84b 4f3e 6f52 ce3d e677 5e3e
000000c0: 6d2f 633e e60e d33c 6179 11bd be20 8a3e
000000d0: 9f83 503d ba85 97be f489 87be bf97 2dbe
000000e0: c029 5ebe fc95 373e 0cb1 d9bb d571 313d
000000f0: de6e 763e 1034 2e3e cf83 88ba 3d15 20be
00000100: 3d3f 94be 0f1a 8dbd 2f9c 67bc fed7 713e
00000110: 41fb ecbb 16dd cf3c 212a 97bd cab8 a6bd
00000120: 2dcd 48be 8d0c 35be dc5d 143e ca4f 573d
00000130: ccfd 5e3e d996 973d a6bb 833d 9c53 593e
00000140: 7a1f 9c3d 36e7 a93d b337 2f3e 4e7c 9dbe
00000150: 608a 933d 7acc 443e ee77 d7be dd4e 9abd
00000160: b3f5 4b3d a3b9 a2bd 2e29 b13b bcb0 89bd
00000170: 9c94 6dbe c163 0d3d a2ed 13be 708b 94be
00000180: 93ca 3dbd 07fd 13be 813e 34be 78f3 9e3d
00000190: bcf4 e53d bc14 66be fe22 ba3d e5e3 d03d
000001a0: 5ac4 c5be 8d3e 063e 8706 5a3e 1b03 a3bd
000001b0: caea ce3d 2b68 b23d d6ca 54be 037a 52bd
000001c0: 50ee 0abb 275c 65be c580 a3bd 018b 6b3e
000001d0: 2701 dd3d 227d 003e 96b3 5d3e cfea b0bd
000001e0: 11d3 5ebd 2b54 963c b0c8 96be 714f f63d
000001f0: 894a 9d3e 04c8 263e 624c be3d b5e3 e9bd
00000200: 2ad8 29be 04a1 343e 2332 943d fd00 52be
00000210: ca88 b83c e52e 7c3e 2925 423d a381 3cbe
00000220: 6ebf 4e3e e399 e83d e3db c9bc 128f 37be
00000230: f287 293e 44f3 213e d482 fb3d a987 7bbe
00000240: d889 813d 090d 0d3e c9c6 003e a137 b9bd
00000250: 46b9 7fbe af82 c4bc 4807 a53d 75f1 6abd
00000260: 18cf abbe 0ed5 90be 7973 93bb 1b4b dcbd
00000270: df95 86bd 0251 61be fb5c 06bd b4ce 353e
00000280: 074f 21bd 5bca e2bd 90f2 2d3d cd9c 893e
00000290: 0386 87be ae77 0dbe 8ae6 263e dab6 bbbe
000002a0: 7c85 513e 8312 a93c 1c91 0e3e 6258 cd3d
000002b0: 39a8 2b3e 960a c8bd 751a 08be 9ccc 143e
000002c0: 8ad7 bfbe 3d75 063e 35a2 403c 4278 61be
000002d0: 0ccd dfbd c93a 963d d11d 25bd 3094 8e3b
000002e0: 6e69 9d3e 6766 c0bd cf3a 81bd 167a bebd
000002f0: 6417 2ebe 23ae 903e 51ca 983d 744f 223c
00000300: a54d 08be 9634 00be 7e4d 5d3e ea22 53be
00000310: 65cc efbd 3ff3 7d3d 23bb 993e 13c5 aebd
00000320: b869 e7bd 7fc0 14be 6164 623d 6841 0cbe
00000330: 4d28 94be f13e 81be 237c d6bc fd8a 923e
00000340: 39ec 953c de11 ca3c 0be9 49bd 586d 003e
00000350: 4419 4a3d 1e3f 5ebe 853a 55be 13fc 25be
0.09173126 0.195364 -0.019095765 -0.05494173 0.24256863 0.23169285 0.011952222 0.41137847
0.031695824 0.0017929375 0.1539957 0.20907474 0.18695782 0.29699093 0.18687397 -0.07149371
0.18148805 0.050518535 -0.23395951 -0.10679935 0.032984097 0.19253962 0.18465199 -0.028599484
-0.19394168 0.07838072 0.061651524 -0.08235193 -0.2217892 -0.0046713734 0.27529398 -0.0650062
-0.05216421 0.32004523 0.124040596 -0.1590592 0.06393335 -0.022072172 0.025326338 0.030497123
-0.047323715 0.10162739 0.22208658 -0.13046293 -0.22106749 0.20243728 0.10074317 0.21725425
0.2218606 0.02576394 -0.035516147 0.26978105 0.050906774 -0.29594213 -0.26472437 -0.16952418
-0.21695614 0.17928308 -0.00664342 0.04332145 0.2406573 0.17012048 -0.0010415259 -0.15633102
-0.28954497 -0.06889736 -0.014136358 0.2361755 -0.0072321002 0.025373977 -0.07381082 -0.081407145
-0.19609518 -0.17680569 0.1448893 0.052566327 0.21776503 0.07401819 0.064322755 0.212233
0.07623191 0.08296053 0.17111091 -0.307589 0.07204127 0.19218627 -0.42083687 -0.07534573
0.049794864 -0.07945564 0.0054065203 -0.067231625 -0.23201221 0.03451896 -0.14446118 -0.29012632
-0.046335768 -0.14451991 -0.17601968 0.07761282 0.1122832 -0.22468847 0.090887055 0.101997174
-0.38626367 0.13109799 0.21291552 -0.07959577 0.10103376 0.08711275 -0.20780501 -0.05138589
-0.0021199174 -0.22398435 -0.07983545 0.23002245 0.107912354 0.12547734 0.21650538 -0.08638536
-0.054400507 0.018350681 -0.29449987 0.12026871 0.30720928 0.16287237 0.092919126 -0.11420385
-0.16586366 0.17639548 0.07236125 -0.2050819 0.022526164 0.24627264 0.04739872 -0.18408827
0.20190212 0.113574766 -0.024640983 -0.1792567 0.16555765 0.15815455 0.12280813 -0.24563469
0.0632512 0.13774504 0.1257583 -0.090438135 -0.2497302 -0.023988096 0.080580294 -0.057359178
-0.33556437 -0.28287548 -0.0044998494 -0.10756513 -0.065715544 -0.22003558 -0.032803517 0.17754632
-0.039382007 -0.110737525 0.042467654 0.26877442 -0.2646943 -0.13815185 0.16298881 -0.36662942
0.20461076 0.02063871 0.13922542 0.10026623 0.1676339 -0.09767644 -0.13291343 0.14531177
-0.3746913 0.1313066 0.011757423 -0.22018531 -0.109277815 0.07335431 -0.04031164 0.0043511614
0.307445 -0.09394532 -0.06310045 -0.0930063 -0.1700111 0.28257856 0.07460464 0.009906638
-0.13310869 -0.1252006 0.21611592 -0.20618787 -0.11708907 0.061999556 0.30025586 -0.08533683
-0.11299461 -0.14526556 0.05527151 -0.13696826 -0.28936997 -0.25243333 -0.02618224 0.28621665
0.018301116 0.024666723 -0.049294513 0.12541711 0.0493405 -0.21703765 -0.20823105 -0.1620944

cnn_layers.1.weight f4 [8]
00000000: 2735 9d3f 202c 7e3f 53e2 863f ab97 753f
00000010: 499c 7a3f 5f3d 6b3f bf8b 703f 3b04 6e3f
1.2281846 0.9928608 1.0537819 0.9593455 0.9789472 0.9189052 0.93963236 0.92975205

cnn_layers.1.bias f4 [8]
00000000: 1c4b 5ebe e023 08be 1106 8dbd 6d7f 4b3d
00000010: 0e16 6ebd 48d0 ecbd 85e6 babc 4ca3 ccbd
-0.2170834 -0.13294935 -0.06885923 0.04968207 -0.0581265 -0.11563164 -0.022814998 -0.09992084

cnn_layers.1.running_mean f4 [8]
00000000: ec3c 9fbe 9995 f4bd 6ab9 a0bb 8a4c 333e
00000010: 9160 afbd cb72 f73d 1faa 483d 9434 d03d
-0.31101167 -0.11942596 -0.0049049156 0.17509666 -0.085633405 0.12082442 0.048990365 0.101662785

cnn_layers.1.running_var f4 [8]
00000000: 67e1 643f 3a46 3e3e f8a3 7d3d 9c9f bb3e
00000010: 7444 fa3d 01cf 183e 348d 8c3d e9b9 263e
0.89406437 0.18581477 0.06192395 0.3664521 0.12220088 0.14922716 0.0686287 0.16281857

cnn_layers.4.weight f4 [16, 8, 3, 3]
00000000: 9ae8 da3d 09f5 2a3e e95d f33d fc20 2f3c
00000010: fb51 95bd 5d7d f0bd 1f26 493d 5fdd d93c
00000020: 7269 0ebe fbe3 a13d bbb4 c93d e4bd 853e
00000030: f86e 91bd 1a58 493e 0241 093e fef9 a63d
00000040: f304 b5bb dd6a ac3a c4f4 c53c c3c4 96bd
00000050: df41 c3bb cb8f d73d 4759 9e3c eae4 be3d
00000060: 3726 38be c0e7 e93c 1607 dcbd 13a6 343d
00000070: 06a4 57bc 9fe6 3f3d 7c4e b9bc 2974 e53d
00000080: 8d09 f33d 6a74 123d b8e5 4bbd 4908 bcbc
00000090: a88b d9bd c0dc 4b3e 345e 1fbe da36 5d3e
000000a0: 5018 20be 5378 ecbd 94e3 14be e26c 0bbd
000000b0: 2f19 51be 2e15 5dbe 4aed 7f3c 08d4 e3bc
000000c0: 402a 5e3d d683 88be 4d3b e33d a318 a9bd
000000d0: 0d53 98bd 5096 193d e64e 1ebe 6055 2a3d
000000e0: d02e 853e a702 1e3e 9453 503e af77 303b
000000f0: da7b 153c 7102 abbd 9c97 0b3e 0b46 b2bd
00000100: 19ea 50be 867a a03d 4c38 7bbe 791c 813d
00000110: 0610 7c3e 1459 98bd 525b 70bd a7ad 6c3e
00000120: a845 c33d 50b0 973d a7ee 15bd 5600 dc3d
00000130: 1f44 bbbd 9eb0 b4be 92c6 35bc 6c68 f33d
00000140: 4f62 3ebe 6f27 143e 3a85 f4bd 29ab 8cbe
00000150: 49b8 203e 34ed b63b f4f0 30be 19bf 9e3d
00000160: 183b 0abe 8320 cebb 03fc 853d 5ecf cbbd
00000170: 13be 83be a1d3 343e e20c 4c3e 4a0f 5b3c
00000180: 8061 2ebc c90e cb3d e4fd 37bd 50ce 41be
00000190: ab60 91bd 32c6 f33c 2a85 f73c 3899 553c
000001a0: 300e 033b 980d 3fbd d0ee b2bd 6c16 96ba
000001b0: 5dc5 eeba ccfe 29be 87a5 91be f815 373e
000001c0: 5aab 3b3e 1772 8cbe 6d4b ca3c 9be6 6fbd
000001d0: a735 d2bc 8dd1 aa3e 6602 f4bc b297 efba
000001e0: 63aa d83d 5746 ac3e 3a39 b03d bb29 803d
000001f0: ac19 d4bd ad5e 813c b34a 03be 6771 70be
00000200: 7345 cf3d f3f2 c9bc f55b a83d 3914 3c3d
00000210: 2cc0 7dbd 0cf3 ac3d 36a0 88bd f2e5 f73c
00000220: d57c 5e3d 3346 00bb 6467 34bc b36e b0bd
00000230: 9070 17be d379 023d 2eae 063e 67a0 9abd
00000240: 94e1 00be ab01 81bd fc65 9e3e 6f05 d2bd
00000250: e50d 123e 1fd7 063e d8cb 953d 63d0 183e
00000260: 7d9b d73d a8b0 f0bd f858 97be 0e8f 993d
00000270: ea73 16be e0e0 cfbc da29 61bd 3180 3abe
00000280: 62bc bbbc 49e8 653b b985 d0bd bf24 4d3e
00000290: b2ad 293e bc28 b23d 5e29 943e 56a4 5cbe
000002a0: e16b 19bc 2890 75bd 5564 3bbe be71 153e
000002b0: a673 f83d b682 7fbd e98d 343d a1a1 1abd
000002c0: 3344 273d e032 11be 2f0b cc3b 4814 53bd
000002d0: d693 fdbc 9d0c 1bbe 1ad6 a5bc 5230 6abe
000002e0: 5eec 9cbd 27d8 a0bd ea56 70bc 5653 e23d
000002f0: 346b 923d d113 ea3d 46e7 2f3e 3b8f 033e
00000300: d3aa 2f3d ead3 093e ace5 f43d e1f7 6e3d
00000310: 4b73 863d 81d2 cabd bb62 0e3e b285 59bd
00000320: fcf0 debd e8cf 3ebe a4f7 b8bd e344 b33c
00000330: 2c32 0dbe 6342 b8bd 3b5e 1fbb 2239 1c3a
00000340: 7af8 843e 32cb 2abd 0ade 02be 93b9 4cbc
00000350: f54d 13bd 2754 15be f29d ecbd 2ee4 3ebc
00000360: 1850 3fbd 9e05 2ebd 86cd a5bd ec0d e8bd
00000370: 3a83 64bd 90d0 18be b20a 0ebe afc0 a1bd
00000380: 3a04 c6bd a64f 7d3c 9198 a33d cfa1 5e3d
00000390: 1f03 41be 94de c73d 0805 c9bd d814 d43c
000003a0: edb6 bd3c af97 d9bd bb78 f9bc 336c 8cbc
000003b0: 3cdd 733e 8341 843d fbea 3e3d d279 07be
000003c0: d5cd a53d 908d 3ebe 6b1d ce3d b805 ff3c
000003d0: 01fa 88be fc4c 1abd 04e4 b2be 7a0a 65be
000003e0: c8bf 63be f0d5 afbe a875 ecbd 032a c2be
000003f0: e468 e83d f7b8 a9bd c65a 423e 54aa 2d3c
0.106888965 0.16695036 0.11883146 0.010689016 -0.07291027 -0.11742661 0.04910862 0.026594816
-0.13907412 0.07904812 0.09848925 0.26121438 -0.07101244 0.19662514 0.13403705 0.08153151
-0.0055242716 0.0013154406 0.024164565 -0.07361748 -0.00595878 0.10525473 0.01932968 0.09321006
-0.17983328 0.02855289 -0.10743539 0.044103693 -0.013161665 0.046850797 -0.022620432 0.112037964
0.11867056 0.035755552 -0.049779624 -0.02295317 -0.106223404 0.19908428 -0.1556328 0.21602955
-0.15634274 -0.115463875 -0.14539939 -0.034039386 -0.20419763 -0.2159011 0.015620539 -0.027811065
0.05423951 -0.26663083 0.11095295 -0.08256652 -0.07437716 0.037496865 -0.15459785 0.041585326
0.26012278 0.154307 0.20344383 0.0026926806 0.009123767 -0.08350075 0.13632053 -0.08704766
-0.20401801 0.078358695 -0.24533194 0.06304259 0.24615487 -0.07438865 -0.05868084 0.23113118
0.0953477 0.07406676 -0.03660455 0.107422516 -0.091438524 -0.35290998 -0.011094706 0.11885151
-0.18592189 0.14468168 -0.119394735 -0.27474335 0.15695299 0.005582476 -0.17279416 0.07751293
-0.13499105 -0.006290497 0.06542208 -0.099516615 -0.25730953 0.17658855 0.1992679 0.013370344
-0.010643363 0.099149294 -0.044919863 -0.18926358 -0.07098516 0.029757593 0.030214865 0.0130370185
0.001999747 -0.046643823 -0.08736956 -0.0011450774 -0.0018216778 -0.16601104 -0.284466 0.17879474
0.18327084 -0.27430794 0.024694169 -0.058569532 -0.025660349 0.33363 -0.0297863 -0.0018279462
0.10579374 0.33647415 0.08604665 0.062579595 -0.10356459 0.015792215 -0.12821464 -0.2348076
0.10120668 -0.02465198 0.082206644 0.045917723 -0.061950848 0.08444795 -0.06671183 0.030261014
0.054318268 -0.0019573092 -0.011010978 -0.08614864 -0.14789033 0.031854462 0.13152382 -0.075501256
-0.12586051 -0.06299146 0.30937183 -0.102549426 0.14263113 0.13168 0.07314271 0.14923243
0.10527704 -0.117524445 -0.29560065 0.07497989 -0.14692655 -0.025375783 -0.054971553 -0.18212964
-0.022916976 0.003508108 -0.101817556 0.20033549 0.16570166 0.08699176 0.2893781 -0.21547064
-0.009364099 -0.05995193 -0.18299992 0.1459417 0.12131433 -0.062380515 0.04408065 -0.037751798
0.040836524 -0.14179564 0.006226919 -0.051533014 -0.030954283 -0.1514153 -0.020243693 -0.22869995
-0.07662271 -0.07853728 -0.014669159 0.11051051 0.071493536 0.11429561 0.17178068 0.12847607
0.04288752 0.13459745 0.11957869 0.058341864 0.06564959 -0.09903432 0.1390485 -0.053106017
-0.10885808 -0.18633997 -0.09031609 0.021883434 -0.1378867 -0.08997037 -0.002431764 0.0005959441
0.25970823 -0.04169769 -0.12780014 -0.012495416 -0.035963017 -0.14582883 -0.11553563 -0.011651082
-0.046707243 -0.042485826 -0.08095841 -0.113307804 -0.05578921 -0.1492331 -0.13871267 -0.078980796
-0.09668775 0.015460884 0.07988084 0.05435353 -0.18848847 0.0975925 -0.09815413 0.025888845
0.023158515 -0.106246345 -0.030453077 -0.017141437 0.23814863 0.06457808 0.046610814 -0.13230065
0.080959 -0.1860869 0.10064205 0.031130657 -0.26753238 -0.037671074 -0.34939587 -0.22367278
-0.22241127 -0.3434291 -0.11545879 -0.37922677 0.11348131 -0.08287232 0.1897994 0.010599691

cnn_layers.5.weight f4 [16]
00000000: 53b8 5a3f 1ebd 7c3f e0ea 7c3f 877a 903f
00000010: e64c 693f 1486 613f e81e 813f c2a5 603f
00000020: df5a a93f 5463 7c3f 215e 733f 8c6a 903f
00000030: a64d 653f 380b 693f 9d55 9e3f a790 7d3f
0.85437506 0.9872607 0.9879589 1.1287392 0.9113296 0.8809521 1.0087557 0.87752926
1.3230857 0.9858906 0.95065504 1.1282516 0.8957161 0.91032743 1.2369877 0.99048847

cnn_layers.5.bias f4 [16]
00000000: e58f 15be f5b8 2ebe a81f a7bd 3a42 79be
00000010: e0ea 50be 0e05 8dbe 281d 9bbe e155 4fbe
00000020: 2e09 24bd 1cda 89be 8e2a 28be 181d 62be
00000030: 07a0 09bd cbaa 47be 3384 ffbc f522 c63d
-0.14605673 -0.17062743 -0.08160335 -0.2434167 -0.20402098 -0.2754292 -0.30295682 -0.20247604
-0.040047817 -0.26924217 -0.16422483 -0.22081411 -0.03359988 -0.19498746 -0.031190967 0.09674636

cnn_layers.5.running_mean f4 [16]
00000000: 9ec8 b33e 6eff c8be 621e 6abe 2be6 0ec0
00000010: d288 ee3f a51e 9b3e 6b92 45be b6e1 463e
00000020: a6a7 b0bf ecc7 223d 4041 d5be 0af0 b1bf
00000030: 38e0 1bbf bd26 4abf 8817 9cbf a548 d4bd
0.35113996 -0.39257377 -0.22863153 -2.2327983 1.8635504 0.30296817 -0.19294135 0.1942204
-1.3801162 0.03974144 -0.41651344 -1.3901379 -0.60889006 -0.7896536 -1.2194681 -0.10365418

cnn_layers.5.running_var f4 [16]
00000000: 2864 173f 7601 8b3f 6687 5c3f 8971 1940
00000010: 79b3 d63f 9ca4 a23f b069 083f f41f 493f
00000020: 4865 1940 9b98 b93f 6876 5c3f 3358 a13f
00000030: 260f f43e 9b5b d93f a0df 803f b9c6 093f
0.591372 1.0859821 0.861441 2.3975546 1.6773521 1.2706485 0.53286266 0.7856438
2.3968067 1.4499696 0.86118174 1.2605041 0.47667807 1.6981081 1.0068245 0.5381885

cnn_layers.8.weight f4 [32, 16, 3, 3]
00000000: afe8 0cbd 096a 14bd 0f28 543d a445 d7bd
00000010: 973f a0be 9056 18be ec16 b13c 6562 273e
00000020: 240b afbd 7cc8 103c c834 36be 3bb9 2e3e
00000030: 8938 1abe 0ae7 f93d 4c40 8f3d 08cd c1bd
00000040: a7a7 723e 5f7a f13b e5bb 1c3c 0310 023e
00000050: 8c9c c0bc 38be 043d a48c c03d f5fa 8e3d
00000060: e1c7 53bc 5346 f43b 785e d53c 502a e6bb
00000070: 8bbf 2c3e 6f06 66bc 12eb 23be aa63 7d3c
00000080: 1155 4f3c b120 593d ac87 8d3d 6934 a73b
00000090: c624 2d3c 389c 203e a89e 163e 5d4a 433e
000000a0: 37ab 133e 1b5c 353e 9372 dfbd b9dd b3bc
000000b0: dbf1 1cbe ec8a 8c3d 5f0f 2d3e 0169 823e
000000c0: d596 593d dff3 1f3d 97c6 53bb e407 9f3d
000000d0: 928f 6e3d 9572 f4bd b2d4 f5bc c99c dfbd
000000e0: ff3e 7b3d 8e72 d33d 6b47 d23d 9684 c1bd
000000f0: d28f 2e3d 840e 523e ddf6 223e 932d c9bd
00000100: cd72 c7bd 5a52 e8bd 4221 05be d914 053e
00000110: 712e 87bd 926c 36be 5083 c9bd 38bc 91bd
00000120: 9754 863d 4211 7e3d 16c3 fe3d 1a4c 493e
00000130: 58d1 1cbd 44b0 5c3d 11dd d0bd 4472 00be
00000140: 3ad4 6cbc c51f d5bd 64f6 04bd 532b bfbd
00000150: 82c4 0abe 5a87 a33c 1271 51be f3f2 95bd
00000160: 6f28 a93d 6100 55be 7136 09bd c59e e7bd
00000170: 47f2 bf3d 9a92 833d 2313 d53d 9fda 673d
00000180: 88c2 2d3c 8067 153e 9df9 dcbd 6c8d 183b
00000190: e9d8 debd 2476 123e 0761 4f3c ddb8 d23d
000001a0: beae 343e 9b41 853c 3750 ee3b 30c5 a53d
000001b0: 9f94 2fbe f745 cabd 91fd 1c3e 23c8 3f3e
000001c0: 77ce 7f3e 20ac b6bc 0921 46be b8cc d13d
000001d0: a13a b93d 3d5c 123c 9cca 92be c988 80be
000001e0: e1aa 1b3d 7c2b 323d 90aa 84bd b6d4 0a3e
000001f0: 9ff6 963d 060e 88bd c027 b93d ba38 293e
00000200: 4710 3c3d ec88 d13c 8181 bc3d 6ee0 49bd
00000210: c6f0 7c3d a37d cabc 97a6 ca3d 563b 1e3b
00000220: 76ff 093e 8848 543d e0b9 36be 413c 8cbe
00000230: dfc0 4bbe 9fb0 27be 30e4 103d 8e69 b9bc
00000240: 02c3 e83d 24eb 07be a0f8 cfbd 1a7b f0bd
00000250: 88b6 77bd 10f9 d63d cd80 24be c67b eabd
00000260: eb55 71bc 9ec7 063d cc02 423e e5ef cb3c
00000270: dcfc a33d a883 32bd 917d ee3d c861 afbd
00000280: 4d5f 693c 2bb2 a03d 8b36 edbd efe5 b0bd
00000290: efcf 843d 02ea 9dbc 338d bcbd 57db 54bd
000002a0: 4afa 1e3e 706b 343d 1682 d53d 4a40 2b3d
000002b0: 0124 d3bc f8cd 92bc fe6d 0dbe 0679 b5bd
000002c0: 07e7 57bd c392 093e 74e9 d4bd 49a8 04bd
000002d0: 19a5 a8bd 35c1 55be 248a 3b3e cfb8 ab3c
000002e0: 134b 553d a405 8bbe e669 3f3e e4bc 1e3e
000002f0: bee2 a1bd b52c 883c 9cd6 da3b f04c f03c
00000300: fbbc 12bd 5c18 afbd 745b f2bc 2970 1dbd
00000310: 917f e5bd 597f 00bd 22a3 4abc a194 1cbd
00000320: 4ce5 493e 1c2c 823d de5f 28be e236 e4bd
00000330: 9792 26bd d322 d83d 968e babd c298 b03d
00000340: d024 b23e 66ee 483e 2dcb f73d 9eaa cb3d
00000350: ac67 1e3e 9d45 cf3d 0045 b1bd 86ca 1b3d
00000360: 78a3 1fbd 4631 21be 27e3 623e b1ee 07be
00000370: ff21 6a3d 6ba9 5cbe d9d7 08be da28 b5bd
00000380: 0e3b bfbb 1eac 40bb 3397 32be 4acd d03d
00000390: bf00 333d ba24 8cbd 3a10 d5bd 5638 99bd
000003a0: e812 513e 5b20 60b9 4bf2 f23d 3645 593b
000003b0: 69ff 20be e1d8 87be d694 afbd 6ed5 bc3d
000003c0: 082d a3bb 18c9 82bc 8e7c 383d eb98 1a3e
000003d0: cb17 033e c5c9 8cba 704f af3d d277 2fbd
000003e0: 121d d13d f9a4 433d f1e6 243d 20c2 c9bd
000003f0: 0f1a f63b ffa0 3a3e 6bd1 d63d c845 34bc
-0.034401592 -0.036233936 0.051796015 -0.1051133 -0.31298515 -0.14876771 0.021617375 0.16346128
-0.08547047 0.008836862 -0.17793572 0.17062847 -0.15060629 0.1220227 0.069946855 -0.09462935
0.23696767 0.007369324 0.009566282 0.1270142 -0.023512147 0.03240797 0.09401825 0.0698146
-0.012926073 0.0074546724 0.026046023 -0.007024087 0.16869943 -0.01403962 -0.16007641 0.015465656
0.012654559 0.053009693 0.06910643 0.0051026833 0.0105678495 0.15684593 0.1470896 0.19071336
0.14420782 0.17710917 -0.10910525 -0.021956312 -0.15326636 0.06862435 0.16900395 0.25470737
0.05312236 0.039050933 -0.0032314414 0.07765177 0.058242388 -0.11935917 -0.030008648 -0.10918576
0.061339375 0.10324584 0.10267528 -0.09449117 0.042617626 0.2051335 0.15914483 -0.09823146
-0.097386934 -0.11343832 -0.13000968 0.12996234 -0.06600655 -0.17814854 -0.09839499 -0.07115978
0.06559103 0.062028177 0.124395534 0.19657937 -0.038285583 0.053879037 -0.10198415 -0.12543589
-0.014454896 -0.1040645 -0.03246154 -0.09334435 -0.13551524 0.019962002 -0.20453289 -0.073217295
0.08259665 -0.20800926 -0.033499185 -0.1130958 0.093723826 0.064244464 0.10404041 0.056604978
0.010605462 0.14590263 -0.107897975 0.0023277653 -0.10881216 0.1430288 0.01265741 0.10289166
0.17644784 0.016266635 0.007272746 0.08094251 -0.17146538 -0.09876626 0.15331103 0.1872869
0.24981104 -0.022298872 -0.1934854 0.10244125 0.09044386 0.008933124 -0.28670204 -0.2510436
0.03800476 0.0434985 -0.06477845 0.13557705 0.07371258 -0.066433 0.09040785 0.16525546
0.04591396 0.025577985 0.092043884 -0.0492863 0.061753057 -0.024718111 0.09895056 0.0024144254
0.13476357 0.051826984 -0.17844343 -0.2738972 -0.19897793 -0.1637597 0.035373867 -0.02263334
0.1136532 -0.13273293 -0.10154843 -0.1174223 -0.06047681 0.10496724 -0.16064759 -0.11449389
-0.014729957 0.032905214 0.1894638 0.024894664 0.080072135 -0.04358259 0.11645044 -0.08563572
0.014243913 0.07846483 -0.11582669 -0.08637606 0.06484973 -0.019276623 -0.09206619 -0.05196699
0.15525165 0.044047773 0.104252025 0.041809358 -0.025774004 -0.01792048 -0.1381149 -0.08860974
-0.05271056 0.13434891 -0.1039609 -0.03238705 -0.08234615 -0.20874484 0.18314415 0.020962147
0.05207355 -0.2715274 0.18692741 0.15501744 -0.07904576 0.01662288 0.0066784155 0.029333562
-0.035824757 -0.08549568 -0.029584624 -0.038437042 -0.11205972 -0.03137145 -0.012367995 -0.03822768
0.19716376 0.063560694 -0.1644282 -0.111432806 -0.040667143 0.10553517 -0.09109227 0.08622886
0.3479371 0.19622192 0.120992996 0.09944652 0.15469235 0.101206996 -0.08655739 0.03803494
-0.038974255 -0.15741453 0.22156964 -0.13274647 0.057161327 -0.21549003 -0.1336359 -0.088456824
-0.0058358973 -0.0029399465 -0.1744049 0.10195406 0.043701883 -0.068429425 -0.104034856 -0.07481448
0.20417368 -0.00021374358 0.1186262 0.0033152825 -0.15722431 -0.26532653 -0.0857331 0.09220396
-0.0049797334 -0.01596503 0.04504066 0.15097396 0.12802045 -0.0010741284 0.085600734 -0.04283888
0.10210623 0.047764752 0.040259305 -0.098514795 0.0075104306 0.18225478 0.10489162 -0.011002965

cnn_layers.9.weight f4 [32]
00000000: 87f6 6b3f ade9 743f f1b0 8d3f f468 933f
00000010: 3562 903f fd3c 8a3f 09e4 5d3f 20ce 7a3f
00000020: c558 873f 3ea4 6a3f dcc1 813f 4b89 783f
00000030: 9d55 733f 2c26 913f db94 713f 6b47 8d3f
00000040: 154c 783f 9045 5c3f e15e 8e3f 00dc 833f
00000050: b748 6c3f f853 5e3f 7708 863f ff78 843f
00000060: 98bd 6a3f ddb1 793f 9b63 673f 9d78 823f
00000070: 8cdf 6d3f bcf3 703f c9e9 5a3f 80fe 593f
0.92173046 0.9566906 1.1069623 1.1516404 1.127997 1.0799862 0.8667608 0.9797077
1.0573965 0.91656864 1.0137286 0.9708449 0.9505251 1.1339774 0.9436776 1.103742
0.9699109 0.86043644 1.1122705 1.0301514 0.92298454 0.86846876 1.0471333 1.0349425
0.9169555 0.9753702 0.9038636 1.0193058 0.9291923 0.9412191 0.8551298 0.8515396

cnn_layers.9.bias f4 [32]
00000000: 9282 9bbe 9e28 8cbe 58ce 5abe 5946 12be
00000010: 258d c5be 852d 65be 7312 a2be 43e5 cabe
00000020: 6680 96be 7313 fcbe d291 99bc 568b 76be
00000030: 278d bebe 2a0d 97be df72 c3be 66fd 80be
00000040: cc08 dbbe 7456 d5be 5181 1dbe cb3c 89be
00000050: 2ceb c2be e378 ebbe cdec 78be 7f2c 6bbe
00000060: 0b58 cdbe d55c 5dbe f757 9ebe 52ce 82be
00000070: f424 e8be 5d4d c5be bf68 dcbe 425a 02bf
-0.30373055 -0.27374738 -0.21367776 -0.14284648 -0.38584247 -0.22380646 -0.316547 -0.39628038
-0.29394835 -0.4923359 -0.01874629 -0.2407659 -0.37217066 -0.2950223 -0.38173577 -0.25193328
-0.4278015 -0.4166752 -0.15381362 -0.26804194 -0.38070047 -0.45990667 -0.24309082 -0.22966193
-0.40106234 -0.21617444 -0.30926487 -0.25548035 -0.45340693 -0.38535586 -0.43048665 -0.5091897

cnn_layers.9.running_mean f4 [32]
00000000: f3e6 083f 08a8 debe 4d9b 00c0 710f 2cc0
00000010: 4402 e5bf 6a92 29bf 5bd6 bd3e 4eea 403f
00000020: 66e2 14bf 2c2a 2ebf b1f8 05c0 0098 93be
00000030: d62a 30bf 4264 57bf 94af 80bf 0aae 3bbf
00000040: d545 9fbf 61ad 95bf 782d 4bbf 2c41 253d
00000050: 9958 0c3b a580 9f3f 700f b8bf 9ec4 9fbf
00000060: d3d7 b63f 546a a0bf bae5 f43d ba17 1a3d
00000070: 44cc c6bf 2b36 e83d 1404 5c3f fda0 713e
0.534774 -0.43487573 -2.0094788 -2.6884425 -1.7891316 -0.66239035 0.37077603 0.7535752
-0.58157957 -0.680331 -2.093304 -0.28826904 -0.6881536 -0.84137356 -1.0053582 -0.7331244
-1.2443186 -1.1693536 -0.79366255 0.040345356 0.0021415113 1.2461134 -1.4379711 -1.2481878
1.4284614 -1.2532449 0.11957879 0.037620284 -1.5531087 0.11338457 0.8594372 0.23596568

cnn_layers.9.running_var f4 [32]
00000000: 9f47 bc3f c5b4 973f f068 0f40 cb3b 8240
00000010: a69a d73f d128 e53f fe9f 693f 3301 c53f
00000020: 1760 f63f 43b5 c63f c1cf ca3f 619c 853f
00000030: b725 d03f b5c4 1d40 2567 d53f 1b61 fe3f
00000040: 346b fd3f b55f a93f d19d e23f b04d 9a3f
00000050: ed80 ce3f 4c3f bf3f 57e1 b13f 1a4f e63f
00000060: d7a9 9f3f 22cb ac3f ad9d b73f e32a 9c3f
00000070: 0108 ce3f 12de 923f 743d cb3f 1ed8 d93f
1.4709357 1.1852041 2.2407799 4.069799 1.684407 1.7903081 0.91259754 1.5390991
1.9248074 1.5524067 1.5844651 1.0438348 1.626151 2.465131 1.6672102 1.9873384
1.9798341 1.3232332 1.7704412 1.2054958 1.6133095 1.4941192 1.3896893 1.799289
1.2473706 1.3499491 1.4344994 1.2200588 1.6096193 1.147402 1.5878129 1.7019079

cnn_layers.12.weight f4 [32, 32, 3, 3]
00000000: 50b3 2bbe 8c2d b4bc 7bdc b7bd c69d e73d
00000010: 37c6 85bd 1c5b f4bc 46dc 7d3e 2947 d5bc
00000020: 0f3e 03be 33bc 083d 1756 2dbd d035 febd
00000030: 61a2 82bd b51d 63bd 1e86 3abc 33fa c83c
00000040: 99fb 883b 221a 203e e7f2 893d 52e9 5a3d
00000050: 4611 1bbe f2a8 0e3e 198e 9b3d a59c 2f3d
00000060: bf63 9e3d c4ce 72be cc80 0d3d 36e9 523e
00000070: 88c4 3fbe e307 483e 23bf b33d 4598 e1bb
00000080: a408 583e a04c 913d 7844 04be a130 8abe
00000090: c36d 84bd b0d2 b8bb 5f54 fd3d 9d51 8ebe
000000a0: d1bb 30bd 43eb fb3c 7c80 ad3d bbd8 113e
000000b0: ead2 e03c af05 50bd 840b 073d d563 84bd
000000c0: d07c 033e e72c 303c 8ba2 de3d 300f 123d
000000d0: dc74 1bbe 97e7 30bd 8e2a 1cbe 391f d8bc
000000e0: 38ad 0ebe ccbb 0f3c b2fa 6bbc 056d 0a3e
000000f0: 3aff b03c 5315 a23d de73 263e ef65 5c3c
00000100: 7430 6ebd 4965 7e3d 42d0 a3bd 0dde f43d
00000110: 3ffb c73a 0080 ddbd 22f3 493d 3b95 d93d
00000120: f7bc 813d bb0a 9cbd dc8f 293d 625e 8b3d
00000130: b475 3d3e 9c0f 30bd a023 66bc 6324 afba
00000140: 9f7f 023e dbe2 cd3d ab7a 243e 6fed a3bc
00000150: 0b3e 03be dfd8 88bd 0a62 61bd d858 093d
00000160: aee4 45bd dccb 6fbd 4565 663d 6c3b 09be
00000170: 15a9 3f3e d12d 2cbc 632d ad3d d95b 363e
00000180: 0ede aebb 8a51 cabb 2776 a13d 765c 04be
00000190: 76ac 73be 42c1 d1bc ae30 783d f678 6e3d
000001a0: 80ab bf3d 544b 093d 2fc6 293e 3e68 123e
000001b0: f4d9 373d 709c 03bd aed7 d13d b6da ffbd
000001c0: bc62 d6bd 8066 28bd a558 18be 17e5 b93d
000001d0: ad9e 323d cc77 6fbe 4f97 38be 296e 6e3d
000001e0: b0dc ef3d c4c8 cdbd df6b de3d 8644 65be
000001f0: a4b5 bcbd 4787 85bc ad22 553d 172b 27bc
00000200: e6ec c4bd 6c69 123c b8cb 063d 26ec 99bc
00000210: c73e aebd 7361 2cbd 43da 40bc 51c7 ebbd
00000220: 9f42 a83d 710e 5cbe 54eb b6bd a2c0 2ebd
00000230: 0bae 153e 019f 623d 582c 22be 7218 37bd
00000240: 4b47 6c3e 2245 60bc f064 00be d395 0d3e
00000250: 9261 793d 3870 563b 7a35 f53d bb42 4e3e
00000260: 82c7 d93d 6b74 71bd 47c2 c3bd 5556 853d
00000270: 1ab0 07bd d9db c0bb 7760 843d 1086 62bd
00000280: 7215 ef3c f4cb 1dbc 0aff 70bd c1d8 a33c
00000290: 5d81 253d 2986 51be 5c55 71be 0247 79be
000002a0: dc99 c73c cc00 68bd 02f8 453d 82a9 6dbe
000002b0: 7485 cfbd 05cf e5ba 5d9c b83d c19a c8bd
000002c0: f403 1abe e88b 01bd d661 823c aba8 bbbd
000002d0: aada 8c3d f4a3 4d3e 3da1 5d3e 8a44 593d
000002e0: c342 3c3e b3dd 033d f488 063d e614 3e3e
000002f0: 7427 013d ee7d 19bd 0968 a83d a2f0 ee3d
00000300: b9c1 cabd dcce 59bd f314 0bbe 408c 04be
00000310: 6515 573d fb8f 203e ef23 1e3e 9420 1a3e
00000320: 0d2e fe3d 2dc1 b1bd 82c1 38be 2e33 f73b
00000330: fa00 bcbd 0f89 2a3c 3939 a33d 293d 363e
00000340: bddb 053e 9431 863d 35f2 9e3d 5c22 c5bd
00000350: 1339 a63d 8d21 233c 18e2 7cbd 0c13 2bbd
00000360: 2dd7 643e f5cb d03d 3846 1ebe c8ce 0ebe
00000370: a9c3 78be 5174 48be 90df bc3d 47b4 60bc
00000380: 0ad7 52be 8e91 07bd 6b94 023e 6536 063e
00000390: dcbc 2dbe 9c81 0bbe aea1 0fbb 48c6 af3c
000003a0: 4731 513d 8ffe 0fbe 4030 a33c 2204 d0bd
000003b0: c313 b13d 78ec 77bc 25f0 da3d 353d f5bc
000003c0: 9ab0 033e ed2f a83d b8cf fe3c a38c 68be
000003d0: dffe dbbd ce78 86be 2834 ba3d dfd6 a03d
000003e0: 1e5c 0c3e a2f7 453d 7e5f babd 31d0 ce3d
000003f0: a7fd e93d 7a76 693e f037 a03d a766 833d
-0.16767621 -0.021994375 -0.089776 0.1130939 -0.06531947 -0.0298286 0.24791059 -0.026034908
-0.12816642 0.033382606 -0.04231843 -0.12412608 -0.063786276 -0.055448253 -0.011384515 0.024533367
0.0041803834 0.15634969 0.06735783 0.053445168 -0.15143308 0.13931635 0.07595462 0.042873997
0.07733869 -0.23711687 0.03454666 0.20596775 -0.18727314 0.19534259 0.08776691 -0.006884607
0.21097046 0.07094693 -0.12916744 -0.26990226 -0.06466248 -0.0056403503 0.12369608 -0.2779664
-0.043147866 0.03075183 0.08471772 0.14242832 0.027444322 -0.05078667 0.032969967 -0.06464354
0.12840581 0.010752893 0.10870846 0.035659015 -0.15181297 -0.04318961 -0.15250608 -0.026382076
-0.13933265 0.008772802 -0.014403032 0.1351815 0.021606077 0.079142235 0.16255137 0.013452037
-0.058151677 0.06210831 -0.079987064 0.11956415 0.0015257372 -0.1081543 0.049304135 0.106241666
0.0633487 -0.07619234 0.04139696 0.068051115 0.18501931 -0.042983636 -0.01404658 -0.0013362285
0.12743996 0.10053035 0.16062419 -0.020010678 -0.12816636 -0.0668199 -0.055025138 0.033531994
-0.04831379 -0.058544025 0.056248922 -0.13401574 0.18716843 -0.01050897 0.084559225 0.17808475
-0.0053365296 -0.006174271 0.07883864 -0.12925896 -0.23796257 -0.025604848 0.0605933 0.058220826
0.09358883 0.033519104 0.16579507 0.14297578 0.04488559 -0.032131612 0.10246216 -0.12492888
-0.10468051 -0.041113377 -0.14877565 0.090768985 0.043608356 -0.23385543 -0.1802647 0.058210526
0.11712015 -0.10048059 0.108604185 -0.22389421 -0.09214333 -0.016299857 0.052035023 -0.0102031445
-0.09615497 0.008936267 0.032909125 -0.018789362 -0.085080676 -0.042085122 -0.011770788 -0.11512626
0.08215832 -0.21489884 -0.08931604 -0.042664178 0.14617173 0.05532742 -0.15837228 -0.044701047
0.23074071 -0.013688358 -0.12538505 0.13826685 0.060884066 0.0032720696 0.119730905 0.20142643
0.10633756 -0.058948915 -0.0955854 0.06510607 -0.033126928 -0.005885583 0.06463712 -0.055303633
0.02918503 -0.009631146 -0.058836974 0.020000817 0.040406574 -0.20461334 -0.23567718 -0.24343494
0.024365358 -0.056641385 0.04833222 -0.23209193 -0.10132876 -0.001753301 0.09014199 -0.09795142
-0.1504057 -0.031627566 0.015915792 -0.0916303 0.06877644 0.20082074 0.21643539 0.05304388
0.18384843 0.03219385 0.032845452 0.1856266 0.031531766 -0.03747361 0.08222968 0.11666991
-0.09900231 -0.053175792 -0.1358221 -0.12944126 0.052510638 0.15679924 0.15443395 0.1505149
0.12411127 -0.086794235 -0.18042567 0.007543943 -0.09179874 0.010408654 0.07969899 0.17796768
0.13072105 0.06552425 0.07761041 -0.09625694 0.08116355 0.00995673 -0.061739057 -0.04176621
0.22347708 0.10195152 -0.15456474 -0.13946068 -0.24293388 -0.19575621 0.09222329 -0.0137148565
-0.20589843 -0.033097796 0.1275193 0.13106687 -0.16966575 -0.13623661 -0.0021916437 0.021456853
0.051072385 -0.1406195 0.019920468 -0.10157038 0.086463474 -0.015132062 0.10690335 -0.029936412
0.12860337 0.08212266 0.031104907 -0.22709899 -0.10741972 -0.26264042 0.09091979 0.078534834
0.13707015 0.048331864 -0.09100245 0.10098303 0.114253335 0.22799101 0.07823169 0.06416064

cnn_layers.13.weight f4 [32]
00000000: 6fb4 5d3f e542 6b3f 1d3d 753f 0e0e 793f
00000010: 2c1b 653f 0275 683f 9ae1 603f 7057 693f
00000020: 5cd2 643f 0e74 6d3f 14de 7a3f e453 823f
00000030: 8892 813f 6798 693f 651c 913f 412d 793f
00000040: b250 743f 9c75 7b3f 8f5d 7c3f 8748 7e3f
00000050: 5fe9 6d3f 201f 813f 3cdb 633f 414d 873f
00000060: c5dc 6d3f 2c1b 883f 5b86 8c3f 634f 803f
00000070: 50d6 823f 261a 6e3f 03fc 6f3f 5d7d 803f
0.86603445 0.9189895 0.95796376 0.9728707 0.89494586 0.9080354 0.8784424 0.91149044
0.8938348 0.9275521 0.97995114 1.0181851 1.0122843 0.9124817 1.133679 0.97334677
0.9543563 0.9822633 0.9858026 0.9932942 0.9293422 1.0087624 0.890064 1.0570451
0.9291499 1.0633292 1.0978502 1.0024227 1.0221653 0.9300865 0.93743914 1.0038258

cnn_layers.13.bias f4 [32]
00000000: 6ee9 f0be add0 e6be 6bd2 a6be 82a9 02bf
00000010: 3099 90be 1672 e8be d049 f0be 505d 9cbe
00000020: 22e0 dbbe 8041 8bbe 83d4 babe 5624 cabe
00000030: f828 9ebe 8de1 d4be 8560 d7be 783f a7be
00000040: fda1 d9be 3b90 a9be ccb9 cdbe 5dab a6be
00000050: 4f34 dcbe 6817 bebe d6d2 7bbe 3671 f0be
00000060: 4e3a ecbe e322 86be bf87 d7be 5ae5 cebe
00000070: 7f8f b2be 1b84 d3be fb9e a8be 6bac ccbe
-0.47053093 -0.45081082 -0.3258241 -0.510399 -0.28241873 -0.4539954 -0.46931314 -0.30539942
-0.42944437 -0.2719841 -0.3649026 -0.39480847 -0.30890632 -0.41578332 -0.42065826 -0.3266561
-0.425064 -0.33117852 -0.40180814 -0.32552615 -0.43008658 -0.37127233 -0.24592146 -0.46961373
-0.46138233 -0.2619849 -0.42095754 -0.40409356 -0.34875104 -0.41311726 -0.32933792 -0.39975294

cnn_layers.13.running_mean f4 [32]
00000000: a6d5 863e d0b3 d4bf 7294 cdbf 561f debf
00000010: af0c 263e aa6d 8cbf 73ba 14be aec1 133f
00000020: 890a b33f e4c6 1bbd 073e ebbf 4186 22bf
00000030: 7811 a9bf cec7 b53f 1f1a ddbf b356 afbe
00000040: 2136 cebf f3cc 3f3e e8bd bebf bbb1 d5bf
00000050: e672 523e 68d6 a3bf e52e 463f 5a1d 85bf
00000060: 4aca 0040 e4c0 88bf 6e47 97bf 46c9 47bf
00000070: be3b 21c0 50a3 86bf c62c c8be 5301 54be
0.26334876 -1.6617374 -1.6060927 -1.7353313 0.16215776 -1.0970967 -0.1452425 0.57717407
1.398759 -0.038031474 -1.8378304 -0.63486105 -1.3208456 1.42016 -1.7273597 -0.34245834
-1.6110269 0.18730526 -1.4901705 -1.6694864 0.20551643 -1.2799807 0.77415305 -1.0399582
2.0123467 -1.0683866 -1.1818674 -0.78041494 -2.5192714 -1.0518589 -0.3909666 -0.2070363

cnn_layers.13.running_var f4 [32]
00000000: 57e5 0240 5682 9e3f 71cd 1a40 bda1 f63f
00000010: 55cc e23f 4f56 e33f f5b0 bb3f 4280 d73f
00000020: 08d1 cc3f c1a8 e53f b362 0540 848b 0f40
00000030: 0338 2d40 acd0 0740 0dea 5b40 21dc 0a40
00000040: 55b6 0240 4cc7 f23f 1786 fc3f 9775 c83f
00000050: 57bc ea3f f891 0640 d581 e93f a9d8 2640
00000060: 7118 1a40 d31e 2d40 91b6 1a40 fce4 0b40
00000070: f06c 1140 0b10 0340 7482 d53f 21c5 0040
2.0452478 1.2383525 2.4187891 1.9268109 1.7718607 1.7760714 1.4663378 1.6836016
1.6001291 1.7942125 2.0841491 2.2428904 2.7065437 2.1221113 3.4361603 2.1696856
2.0423787 1.896707 1.9728421 1.5660886 1.8338727 2.1026592 1.8242747 2.606974
2.4077418 2.7050064 2.417393 2.185851 2.272274 2.0478542 1.6680436 2.0120318

cnn_layers.16.weight f4 [32, 32, 3, 3]
00000000: 97f0 1e3e 9755 d93c 64e6 c3bd feb7 e83d
00000010: d70a af3b b05e 283d dca2 9cbc 2925 d53d
00000020: 17a7 86bc 59f7 51be fe28 2cbd 41ea 3cbe
00000030: 349a c03d 3560 1fbd 7282 87bc 225d af3c
00000040: 677d bf3d 5f73 e93d ef07 293d c8e0 1bbe
00000050: 9e06 20be c49e 1b3e 04bb 503e fba0 a4bd
00000060: 5cb4 2bbe e7fc 29be 2dc9 5d3c 0d4a c23d
00000070: cfe9 413e 1746 babd fbbc 873c 86aa 983c
00000080: 342a 35be 2535 5f3c 1990 8fbe 8f72 00bd
00000090: 3ceb 3b3d a6dc 4d3d 79df fabd 3386 c9be
000000a0: 23bc bbbc 6f0f a4bd 733f ab3c 0ecc e2bc
000000b0: 6513 eebd f356 b43d ac9c 8dbd 9191 303d
000000c0: 87d2 79bd f903 80bc d41a 2bbd 030d 283e
000000d0: 6619 533c dacf 2fbd e151 923d 8602 46be
000000e0: 17ff 82be af66 bebd 4a94 bdbd 9a3f 913c
000000f0: 6bd3 673d eed1 51bd 82d6 b9bc 7d68 02bd
00000100: 21cd 81bd ff45 3c3d 8ea6 ba3a bc10 1ebd
00000110: 0e6c 1e3d 0dfe d0bc 9d9d 233c 2076 1abe
00000120: 464e 51bd c020 03bd ea68 2fbe 572f b8bd
00000130: c3ab 09be 5a76 69bc 33a4 ca3d ae69 d83b
00000140: de18 9a3d 13b8 ad3d e9e6 4f3e 21b4 0d3e
00000150: 73f2 93bc 7c4c af3d b68c e3bd 56f5 863d
00000160: a7a7 533d e865 033e 71ed 413e dc50 973b
00000170: f5f0 9f3e 1b27 c9bd eb35 053e 5a75 0cbe
00000180: 8048 57b9 ac63 033d ad9f eb3d 2981 3bbd
00000190: 2f4c fc3d 9f3e 5ebe e7cf 463e e46f e13d
000001a0: b2de 99bd 1841 08be fe49 383d 3756 29bd
000001b0: aa27 2a3e 10ac 503c 60dd 5abe 5663 bbbd
000001c0: c4d3 06be d1ba 833c 9cc4 f339 31cb 613d
000001d0: 956b 923d 0c67 e7bd 9fd5 85be e594 ad3d
000001e0: ccd6 8cbd 8359 203e 194e 8c3b a00f 0a3e
000001f0: d92b 7bbd 935a 113d acc8 fbbd 4e8e 25bc
00000200: 8212 1f3e c727 13be 0e78 5ebc 2d99 1bbe
00000210: 9b82 b4bd 4f4c a0bc f4ca 523e 5201 3f3d
00000220: 210a 14be a5d2 2bbe c942 d8bd 9161 cc3c
00000230: 3884 99bd d26e 7cbd c020 833c 6653 e43d
00000240: 11da 303e 4a2e 94bb 82be fc3d 5f32 9ebc
00000250: 1a0f ae3d fc35 a0bc b60d 643d 44f4 9b3b
00000260: 7e38 443d 79d5 473d 7813 ebbd 247b 59be
00000270: a570 82bd df20 8d3d 064d c13d 9c7d 3d3d
00000280: e5c0 bd3d e7b4 5cbd 4b26 3abd 0d3b 02bd
00000290: 298c c3ba 39bb 67ba 7e05 1c3e a896 443d
000002a0: f848 873d 5911 303c 8e7c 35bc 2467 bcbb
000002b0: 9ceb e8bd c254 363d f0cf ec3c 68c9 52bc
000002c0: 015b 083d 6c2e 5bbd 701f e3bc 90f7 773d
000002d0: 0306 91bd ff13 6e3d 84c6 083d 52fd ddbd
000002e0: 4824 1abd 1b97 7c3d a5ef b53d 43ce 4ebd
000002f0: 77a3 df3a 4c33 cc3d b7da 11be a140 863e
00000300: 49f9 31be f842 b4bd 6efa e93d 3112 22be
00000310: cf60 d8bc 53b7 b23e 9407 3cbe d2f3 da3d
00000320: 0fa7 19be 77f4 7dbc eec4 7e3d 1b2f 1b3d
00000330: 90d2 84bd 5d0d 4cbc e54d 143d 7bcd 4cbd
00000340: df62 3dbe 1d0a 283e b3b3 77bd 52bc 6c3d
00000350: 215c 473e 6dbe 753d 338a a83d ac38 dcbd
00000360: 1573 173e 7d09 57bd 0f88 6bbd cf50 87bd
00000370: 0d98 5c3e 6c56 ebbc 3629 61be 8b2d 0e3e
00000380: c225 ddbd 76f8 c73d b44c cfbc adcd adbb
00000390: c8c8 7e3c c008 8b3c 49b7 d03c af80 293b
000003a0: 6558 003e 6350 8dbe bb13 d63d 6e45 e23d
000003b0: c969 b43c 9b97 37be 498e 23be 9579 5cbd
000003c0: 3397 b1bc 42e0 993d ae16 f33d b935 afbd
000003d0: ed2c 30be 0cad 0bbe 3082 7b3d 9510 e3bc
000003e0: edc4 903d 7d73 d53d 6c9e 8d3e 2cbd aebd
000003f0: 1974 e23b e29c 4abd d563 473d 51d0 743d
0.15521465 0.02653007 -0.09565428 0.11363219 0.0053418684 0.041105926 -0.019120626 0.10407478
-0.016437097 -0.20504512 -0.04203128 -0.18448736 0.09404412 -0.03891011 -0.016541693 0.021406714
0.093500905 0.113989584 0.04126733 -0.15222466 -0.15627524 0.15197283 0.20383841 -0.08038517
-0.1676802 -0.16600381 0.013536734 0.0948678 0.18936847 -0.090954 0.016569605 0.018636
-0.1769188 0.0136235105 -0.28039625 -0.03135925 0.045878634 0.050259255 -0.12249655 -0.39360198
-0.022916859 -0.08010756 0.020904278 -0.027685191 -0.11624793 0.08805647 -0.069146484 0.043107573
-0.06099179 -0.015626894 -0.041773632 0.16411214 0.012884473 -0.042922832 0.071445234 -0.193369
-0.25585243 -0.09296929 -0.092567995 0.017730523 0.05659811 -0.051225595 -0.022685293 -0.03183793
-0.06337953 0.04596519 0.0014240311 -0.038590178 0.038677268 -0.025511766 0.009986308 -0.15084124
-0.051100038 -0.032013655 -0.17129865 -0.08993404 -0.13444428 -0.014249409 0.098946 0.006604395
0.07524274 0.08482375 0.20302929 0.13838245 -0.018059945 0.0855951 -0.11110823 0.06589763
0.051673558 0.12831843 0.18938233 0.0046177935 0.31238523 -0.09821912 0.1300885 -0.13716641
-0.00020531006 0.032077476 0.11505065 -0.045777474 0.12319218 -0.21703576 0.19415246 0.110076696
-0.07513179 -0.13306081 0.04499244 -0.041341987 0.16616693 0.012736335 -0.2137351 -0.09149806
-0.1316672 0.016080292 0.00046495057 0.05512542 0.07149426 -0.112989515 -0.26139542 0.08475665
-0.06876907 0.15659146 0.004281771 0.13482523 -0.061321113 0.03548677 -0.122941345 -0.010104729
0.15534404 -0.14370643 -0.013578428 -0.1519515 -0.088139735 -0.019567637 0.20585233 0.04663212
-0.14456989 -0.16779573 -0.10559613 0.024948867 -0.07495922 -0.061629124 0.016006827 0.111487195
0.17270686 -0.0045221196 0.12341024 -0.019311128 0.08498974 -0.019556992 0.05567714 0.0047593433
0.047905438 0.048787568 -0.11478323 -0.2123838 -0.063691415 0.06891035 0.09438519 0.04626237
0.09265307 -0.05388346 -0.045446675 -0.031794596 -0.001491909 -0.0008839849 0.1523647 0.04799524
0.066057146 0.0107463235 -0.011077059 -0.0057496 -0.11373064 0.044514425 0.028907746 -0.012865402
0.033289913 -0.05351107 -0.027724952 0.06053883 -0.07081225 0.05812454 0.033392444 -0.10839333
-0.037632257 0.061667543 0.08883599 -0.050489675 0.0017062266 0.099707216 -0.1424359 0.26221183
-0.17380251 -0.08801836 0.11424719 -0.15827252 -0.02641335 0.3490549 -0.18362266 0.10691036
-0.15005134 -0.0155001795 0.062199526 0.03788672 -0.06485474 -0.012454358 0.0362071 -0.05000065
-0.18494748 0.16410108 -0.06047411 0.057796784 0.19468738 0.059996057 0.082294844 -0.10752997
0.14789994 -0.052499283 -0.057502802 -0.0660721 0.21542378 -0.028727733 -0.21988377 0.13884561
-0.10798217 0.09764187 -0.02530513 -0.0053040595 0.0155508 0.016971946 0.025478022 0.0025864055
0.1253372 -0.27600393 0.10452982 0.11048399 0.022023099 -0.17928927 -0.15972246 -0.053826887
-0.021678543 0.07513477 0.1186956 -0.08555169 -0.17204638 -0.13640231 0.061403453 -0.027717868
0.070688106 0.10422418 0.2765993 -0.085321754 0.0069108126 -0.04946602 0.04867919 0.05976898

cnn_layers.17.weight f4 [32]
00000000: 8543 6e3f 5de3 6b3f e80c 733f 987c 7e3f
00000010: a0dc 6b3f 2bf9 743f 9409 6d3f 8217 6b3f
00000020: 464d 743f df46 763f 48e6 6a3f 4a74 5f3f
00000030: e989 723f 6bd7 733f adc5 7b3f 75d3 7d3f
00000040: c5eb 6e3f aed5 673f 41aa 7a3f 0717 5e3f
00000050: 5a6d 843f 0850 6f3f a93d 773f e18c 673f
00000060: 54e4 813f 79a9 683f 644a 6d3f 6278 703f
00000070: ca5d 783f 1560 7a3f 4291 813f c68a 823f
0.93071777 0.92143804 0.9494157 0.99408865 0.9213352 0.956927 0.9259274 0.91832745
0.9543041 0.9620189 0.9175763 0.8728682 0.94741684 0.95250577 0.98348504 0.9915078
0.93328506 0.90560424 0.97916037 0.86753887 1.0345871 0.93481493 0.9657846 0.9044934
1.0147805 0.90883595 0.92691636 0.9393369 0.9701811 0.9780286 1.0122454 1.01986

cnn_layers.17.bias f4 [32]
00000000: 6e35 abbe 0b7e afbe 2199 acbe 758a 88be
00000010: 01f7 9cbe 5445 c8be 92e9 c9be 6ee4 e3be
00000020: e9c3 ecbe 4ba8 01bf 8543 04bf cf10 93be
00000030: c439 cbbe 9ce9 d6be ac7e bfbe ad3b ccbe
00000040: c6df f0be 3855 e3be 9f93 07bf 05a3 e6be
00000050: 34d4 f8be 4351 0cbf 765c efbe 3271 bdbe
00000060: 503c 08bf bf49 b8be aa81 9cbe 8e1a c3be
00000070: c2c8 05bf 4040 debe 9c25 ccbe ab43 0cbf
-0.334392 -0.3427585 -0.33710578 -0.26668134 -0.306572 -0.39115393 -0.39436013 -0.44510216
-0.46243218 -0.5064742 -0.51665527 -0.2872376 -0.3969251 -0.41975105 -0.3740133 -0.3988928
-0.47045726 -0.44400954 -0.52959627 -0.4504625 -0.48599398 -0.54811496 -0.4675023 -0.37000424
-0.5321703 -0.35993764 -0.30567676 -0.38106197 -0.5225946 -0.43408394 -0.39872444 -0.54790753

cnn_layers.17.running_mean f4 [32]
00000000: 668a 49bd f97d 88bf ec2c 18bf 31cd 05bf
00000010: 8826 bc3e cf26 5fbd f7d5 65be 6ecb 093f
00000020: fba6 07bf 1d05 ecbe 9f5b e9be 5637 663e
00000030: 0644 583e f2d1 603e e502 53bf 1a5b 7bbf
00000040: dd03 f1bd 5816 e8bc a11f b63d 96ff bb3e
00000050: aa44 91be b6d2 99bf 4ea9 903f 78e1 59be
00000060: 442f 06bf 85f0 d9bd fc77 b8bf 9a7f 93bf
00000070: 57c9 87bd ecf9 343e 1654 77bf a90b b7bf
-0.049204253 -1.0663444 -0.59443545 -0.5226622 0.36748147 -0.05448037 -0.22444902 0.53826034
-0.52989167 -0.4609765 -0.45577714 0.22482046 0.21119699 0.21955088 -0.8242629 -0.98185885
-0.11768315 -0.028330967 0.088927515 0.36718434 -0.283727 -1.2017429 1.1301668 -0.21277416
-0.5241587 -0.106415786 -1.4411616 -1.1523316 -0.066301994 0.17673463 -0.9661268 -1.4300433

cnn_layers.17.running_var f4 [32]
00000000: d34c b63f 3163 973f 66d7 d33f c06d 943f
00000010: 067f 8f3f fd4c a53f 4a8b a43f 1a92 773f
00000020: 0a95 9d3f e521 0040 0bbc bf3f 8273 983f
00000030: 7796 d63f 78d0 aa3f 1a1a bf3f 2f35 cc3f
00000040: 0c5a 993f 4ec5 a43f 9336 c03f ce3c a13f
00000050: d4d2 b63f 59c1 9f3f ddfb af3f a840 8f3f
00000060: c276 cb3f bcf9 8b3f 547a c23f b4ed d13f
00000070: e10e 9d3f 74e1 b63f 2c14 b43f 9214 a23f
1.4242195 1.1827146 1.6550109 1.1595993 1.121064 1.291412 1.2855008 0.9670731
1.2311108 2.0020688 1.4979261 1.191025 1.6764668 1.334487 1.492984 1.595373
1.1980605 1.2872713 1.5016655 1.2596681 1.428309 1.248088 1.3748738 1.1191607
1.5895617 1.0935588 1.5193582 1.6400666 1.2270166 1.4287553 1.4068656 1.2662528

cnn_layers.20.weight f4 [32, 32, 3, 3]
00000000: 1559 ce3d 2b5c bb3d 867a dabd f930 853d
00000010: b18b 2abd 5ef0 b43d c8ad 873d 99f8 00be
00000020: 9eb6 a83c 0adb 08bd be6d ab3d cca8 5a3d
00000030: 4e34 6ebd 2333 c5bd 7a1b a7bd 24d7 37be
00000040: 23e9 193d 57e6 25bd e9f5 bebc c511 33bc
00000050: 40f3 85bd c9c7 48bd a69f f9bd f44f a0be
00000060: f278 efbd 953b 073c 59a5 e83c 3b31 c1bd
00000070: 4083 0ebe 0c41 46bd 9435 b8bc 80dc 87bc
00000080: 36fd 83be 02d7 9a3d 7c83 3ebe 9ac3 21be
00000090: 4f75 8cbc 3727 c1bd 2969 9fbd 4fb8 883d
000000a0: 34b4 d33d 436f 123e db9b 18bd 0c0b 47bc
000000b0: 4a58 d13d 8f81 16be 29a1 5d3d 5769 6e3e
000000c0: 9ba1 3fbe 1b00 85bd de5c 4e3e 8217 4cbc
000000d0: 1200 063e bdb4 39bc 9b56 973b 8cf3 78bc
000000e0: 3935 603d 13f3 8c3d 0bb0 073e 30ca 523c
000000f0: b892 8d3d 850d a83c 6f87 0bbd e219 3abb
00000100: bb6d 493d 4b29 7fbc 2cd5 98bd 588c f03c
00000110: a482 8f3d 640f e63d 8c37 9fbd 5d12 e73d
00000120: 0e33 3ebc 4515 03be c692 f8bc b9f1 06bd
00000130: a8c7 08bd e295 5ebc 7fc1 fdbc 7086 28be
00000140: a06b 20bd a669 e73d 8cf3 9f3d c64e 45be
00000150: e1f9 0d3b a454 0b3e 50ee 043e 6c08 a83d
00000160: fbff 31be fcb4 023e 4998 183c a465 e6bd
00000170: df14 203c b4c6 93bc 91ee 0c3e a4c4 203e
00000180: 8f36 20bd cf00 53be 0b97 ff3d 2af9 25bd
00000190: 0477 ae3d 4d10 f33c 42e7 903d 57b8 083e
000001a0: 4edc 6abd cf29 0a3d 9239 6f3e af06 f03d
000001b0: db22 853d 0e2d a5bd 6c31 883c ff2e 9a3c
000001c0: fcb9 0c3d a65c ee3c 08ee 513c f763 093e
000001d0: 3d3a a23e 0d4d b83b cc40 483c 0290 19bd
000001e0: 716f e73d 3781 8dbc 2622 89bd 43e9 a93d
000001f0: a7c9 273d 2c65 73be ed88 a2bd 047d 933d
00000200: 702b 8a3d 906d 1cbe 3261 18be a41b 103c
00000210: 6666 10be b21f 87bd 0054 38be 1896 233d
00000220: f3f4 9fbd 2a93 f53c 9451 0b3d a3ab 2fbd
00000230: 0ae4 f5bd 9969 8bbd fc2e 1b3e 3706 9a3e
00000240: 4ea6 343d e8b1 4a3e 7ef8 603b 3560 023d
00000250: 9dea c03d f989 e33c 68d4 9ebd bc92 abbd
00000260: 030c 1e3e d551 c1bd 3a19 a93d 8330 dcbd
00000270: 271e 34bd 935a 13bd f2e9 85bc 6fb1 d63c
00000280: 73d3 743b a39c a6bd ea5c fbbc ac9f 87bd
00000290: d292 bebc 94b5 b63c 2012 02be 9304 c1bd
000002a0: 290b e3bd 4129 b5bd e69d 803e 168c d73b
000002b0: 47fd fd3d b94b 7ebe e232 8f3d aa14 6cbe
000002c0: 0d81 35be 46c1 03bd 2ddf 03be 1a9c 88bd
000002d0: a1e4 163c 1077 10bd 9653 a2bc fd59 063e
000002e0: 855c a4bc 6a65 77bd 8160 e1bc f170 0a3e
000002f0: a0f7 6e3e a5c8 e63d 50a3 4bbe 5a20 61be
00000300: ee40 c43b 00e0 b8bd 7720 4dbe 4971 70bd
00000310: 3d5a 1bbe 2e07 86bd 2272 b83d be3d f3bb
00000320: 7b8c 873d 7f7f 2d3e 2d82 21bd ca6e 1e3e
00000330: 527a 6d3d b804 713d 5ac1 8cbd 0781 493c
00000340: 9b3b f2bd 54ab 4abd dc47 67bd 362b 36bd
00000350: e7ad a0bd a578 6a3d 6d7f b9bd 91f7 2a3d
00000360: 9f99 5cbd 602d e23d 4344 ad3d 22e6 303d
00000370: 6c29 6fbd b560 ec3d 8861 09be 4704 1cbd
00000380: 3cd6 b6bd 97a7 123d e79b 36be 1ed0 523e
00000390: 1d6b 8dbc 5380 78bc 855d 4d3d 5790 ba3d
000003a0: c53b 2e3e 1a90 8fbd 7398 50bd b748 983d
000003b0: 7ac0 51bb 09e3 74bd cf5e 693d 70d0 4b3e
000003c0: eac6 9f3d 7684 013e c7dd 693d f7df 0bbe
000003d0: c4f4 2c3e a6a7 37bc 07e5 28bd 8b41 993c
000003e0: 8b7d 0c3e df4f 52be 0310 48bc df23 583d
000003f0: 4dd4 2dbd dd36 31bd 6c22 b2bd 1e92 95bd
0.10075585 0.09148439 -0.10667901 0.065034814 -0.041637126 0.08834909 0.06624943 -0.12594832
0.020594891 -0.033412017 0.08370541 0.053383633 -0.05815535 -0.09628894 -0.081595376 -0.17953163
0.037575852 -0.040502872 -0.023310618 -0.01092953 -0.06540537 -0.049018655 -0.12188654 -0.31311
-0.1169299 0.008253952 0.028399156 -0.09433218 -0.13917255 -0.048401877 -0.022486486 -0.016584635
-0.25779122 0.07560541 -0.18604845 -0.15797272 -0.01714578 -0.09431308 -0.077837296 0.06675779
0.103371054 0.14300255 -0.03725801 -0.01214863 0.10221918 -0.1469786 0.054108772 0.23282371
-0.18713991 -0.06494161 0.20152614 -0.012456777 0.13085964 -0.011334595 0.0046184785 -0.015194785
0.054738257 0.068823 0.13250749 0.012865588 0.0691275 0.02051426 -0.034064706 -0.0028396775
0.049176913 -0.01557381 -0.07462534 0.029363796 0.070073396 0.11233404 -0.077742666 0.112827994
-0.011608852 -0.12801082 -0.030343425 -0.03294537 -0.033393532 -0.01358554 -0.030976055 -0.16457534
-0.03916514 0.11299448 0.07810125 -0.19268331 0.0021663832 0.13606507 0.12981534 0.08204731
-0.17382805 0.12764353 0.009313651 -0.11249855 0.009770601 -0.018039085 0.13762881 0.15700012
-0.03911453 -0.20605777 0.12479981 -0.040520824 0.08518794 0.029670859 0.07075359 0.1335157
-0.057339005 0.033731278 0.23361805 0.11720025 0.06500789 -0.08065234 0.016625129 0.018821238
0.034357056 0.029096913 0.012813099 0.1341704 0.31685057 0.0056244195 0.01222248 -0.037490852
0.11300553 -0.017273529 -0.066959664 0.08296444 0.040963795 -0.23769063 -0.07936273 0.07201579
0.06746566 -0.1527617 -0.14880827 0.008795653 -0.14101562 -0.06597842 -0.18000793 0.039938062
-0.07810392 0.0299774 0.034013346 -0.042888295 -0.120063856 -0.068072505 0.15154642 0.30082867
0.044103913 0.19794428 0.00343278 0.03183003 0.09419749 0.027775751 -0.07755357 -0.08377597
0.1543427 -0.09439436 0.08256765 -0.107514404 -0.043974068 -0.03597505 -0.016346905 0.026207654
0.003735748 -0.08135345 -0.030683953 -0.06622252 -0.023263369 0.02230338 -0.12702227 -0.094247006
-0.11086113 -0.08845759 0.25120467 0.006577979 0.124018244 -0.24833573 0.06992127 -0.23054758
-0.1772501 -0.03216674 -0.12878104 -0.06670399 0.009209783 -0.035269797 -0.019815248 0.13120265
-0.020063648 -0.06039945 -0.027511837 0.13519646 0.23336649 0.11268739 -0.19886518 -0.21984997
0.0059891855 -0.090270996 -0.20031916 -0.058701787 -0.15171142 -0.06544338 0.09006144 -0.0074231317
0.066185914 0.16943167 -0.039430786 0.1547195 0.057977982 0.05884239 -0.068728164 0.012298829
-0.11827775 -0.049479797 -0.056465015 -0.044474803 -0.07845669 0.05724396 -0.09057508 0.041740004
-0.053857442 0.11043811 0.084602855 0.04318822 -0.058389112 0.11541883 -0.13416111 -0.038090017
-0.08927581 0.035804357 -0.1783291 0.20587203 -0.01726299 -0.015167314 0.050138015 0.09109562
0.17014988 -0.07009907 -0.050926637 0.07435744 -0.0032005594 -0.05978683 0.056975182 0.19903731
0.07801612 0.12648186 0.05709627 -0.13659655 0.16890246 -0.011209404 -0.041234042 0.018708011
0.13719766 -0.20538281 -0.012210849 0.052768584 -0.042438794 -0.043265212 -0.08697972 -0.0730326

cnn_layers.21.weight f4 [32]
00000000: 0e65 1b40 d7b5 1240 d474 1140 68a7 0f40
00000010: 8975 0840 ac47 0b40 ccba 1840 205e 1540
00000020: 867d 1440 ebd7 0740 95b8 1740 2d15 1a40
00000030: 2e36 0b40 0ce3 1740 cfc3 0f40 3336 1340
00000040: 2662 0c40 b4c7 0c40 c059 0c40 57ac 1140
00000050: c80e 1940 6fff 1140 3b77 2d40 a09e 1540
00000060: f820 1440 e629 1d40 c1a9 1040 831f 1b40
00000070: 7e53 1440 9a31 1840 a600 1940 3855 1140
2.428043 2.2923486 2.2727556 2.2445927 2.1321738 2.1762495 2.3864012 2.33387
2.3201613 2.1225536 2.370641 2.4075425 2.1751819 2.3732328 2.2463262 2.300183
2.1934905 2.199689 2.192978 2.2761438 2.3915272 2.2812154 2.7104023 2.3378067
2.3145123 2.4556823 2.260361 2.4237983 2.317596 2.3780274 2.3906646 2.2708263

cnn_layers.21.bias f4 [32]
00000000: 6868 303e ec68 0f3e c85c bc3d 06f2 3c3e
00000010: 03b1 2a3e 845a 463e 2267 403e cecd 293e
00000020: e8fa 893e 6d2a ef3d f648 5f3e 5fd1 3a3e
00000030: 42d0 233e a83b 443e bcc0 543e 3e2c 2a3e
00000040: b5f6 c93d 0ebb 163e f7a4 e13d 5336 293e
00000050: 9cad cd3d 8c79 1f3e afaa 7b3e 9fb8 633e
00000060: cd3c 133e ca2f 403e ddc1 f33d 1107 203e
00000070: d68c 023e fc26 833e 9dd7 4c3e a8f8 823e
0.17227328 0.14004868 0.09197384 0.184517 0.16669087 0.19370466 0.18789342 0.16582415
0.2694924 0.11678014 0.21805176 0.18243931 0.15997413 0.19163382 0.20776647 0.1661844
0.09861509 0.14719793 0.11017793 0.1652463 0.10042879 0.1557371 0.2457683 0.22238396
0.14378662 0.1876823 0.11902211 0.15627696 0.12749037 0.2561568 0.20004125 0.25580335

cnn_layers.21.running_mean f4 [32]
00000000: a7d0 f9be 6a83 e73d 4c49 923e 1479 8c3e
00000010: d936 3fbf ff8b 4bbe 0a23 83be f3e7 c0bc
00000020: 1bff 1dbe 4241 4abd 4219 6fbe d0ab c3bd
00000030: 9361 24bf cf49 e13e 3715 ffbd 90c3 61bf
00000040: 36dd bc3b 4293 cbbe b3d7 f0bd 96dc d8bd
00000050: 9626 a4be b9a9 8cbd a8e8 173e c5ae 9bbd
00000060: e248 2cbc 7c15 ecbe 48f5 333e d524 0fbf
00000070: 44dc 5ebd d6f5 903e 178c a4be 0057 a7be
-0.48792002 0.11304362 0.28571546 0.27436125 -0.74693066 -0.19877623 -0.2561267 -0.023548102
-0.15429346 -0.04937864 -0.23349479 -0.09554255 -0.64211386 0.44001624 -0.12455218 -0.8818903
0.005763675 -0.39760786 -0.11759891 -0.105889484 -0.3206069 -0.068683095 0.14834845 -0.07601694
-0.0105154235 -0.4611014 0.17574036 -0.55915576 -0.05440928 0.28312558 -0.3213813 -0.32683563
